src/computer_vision/hand_pose_detection/model/point_history_classifier/point_history_classifier.tflite (tflite, 6468 bytes, 6 tensors)

arith.constant f4 [5, 10]
00000000: 1b6e 6b3f 85fa 2040 e01c 8e40 4007 af3f
00000010: 3668 04c0 dada 7dc0 da29 4cc0 63b2 3fbf
00000020: db81 1ac0 a93b 26c0 2f8d 953e 932c a5bf
00000030: 743e b5bf f62b b3bf 51e7 a63f d88e fcbe
00000040: 4e57 bcbf 82ba bf3f b324 bcbf 6d43 0f3f
00000050: 4657 ce3e 3aae 54bf ed59 31c0 ceb3 be3f
00000060: 827c 41bf f0e6 423e 8078 df3e 638f f9bf
00000070: c831 84be 4ab1 653f bf81 7c3f ec45 043f
00000080: 0bb7 16c0 84e3 12bf a424 d0be 81f0 3e3f
00000090: e784 623d f6be 3a3f 9c4e 6f3f d4ba c3be
000000a0: 5b7e 40c0 95f8 bebd 837d afbf 0d60 46be
000000b0: f728 ea3e c999 e33e f574 1c3f 5acf 5b3e
000000c0: 4703 433f 23e1 c4be
0.9196488 2.5152905 4.441025 1.3674088 -2.0688605 -3.9664826 -3.1900544 -0.7488157
-2.4141757 -2.5973914 0.29209277 -1.2904228 -1.4159684 -1.3997791 1.3039342 -0.4932773
-1.4714143 1.4978793 -1.46987 0.5596226 0.4030096 -0.8307835 -2.7711136 1.4898622
-0.7558061 0.19033408 0.43646622 -1.9496883 -0.2581923 0.89723647 0.98635477 0.5166919
-2.354922 -0.5737841 -0.40652955 0.7458573 0.055302527 0.72947633 0.93479323 -0.38228476
-3.0077121 -0.09324757 -1.3710178 -0.19372578 0.4573438 0.44453266 0.6111596 0.21465817
0.76176876 -0.38453016

arith.constant1 f4 [10, 24]
00000000: a8a7 32be 5b68 44be f726 17be ce66 81be
00000010: 6323 21be 7c18 45be 37bf f73d 0866 90be
00000020: e908 f8be fceb 12bd be85 5fbf 7f5b 5ebe
00000030: 3691 86be 53c8 a8be 3498 fabe 1c02 02bf
00000040: 4144 49bd 7168 b3bd 92bd 78be ac5e 54bf
00000050: 144a 213d 5361 a7be 5e7f f3bd 8c4e 85bf
00000060: 6385 26c0 03a7 f6bf da55 d6bf 3f61 aa3d
00000070: 8ea2 27c0 1246 bebd 60c7 9cbd 4ab5 2cc0
00000080: f282 7ebf 1d9f c6be b158 30c0 044f 273e
00000090: 5f65 8bbe e0d7 ccbd ee11 90c0 5da9 91bf
000000a0: 29d7 76be a9ee 96c0 a83f df3b a73c 3fbf
000000b0: 8736 8c3d 419c 83bf b67b 133d 070d 3ac0
000000c0: 187c 9bc0 c863 82c0 31d6 97c0 4f02 a2c0
000000d0: 7879 54c0 375a b2c0 5dbc 36bf 57f0 74c0
000000e0: 3668 8ac0 d83d b03e 8c0f 59c0 248a a0c0
000000f0: 5a09 90c0 0bf7 a0c0 22dc 6fc0 336a afc0
00000100: 1a67 b9bf ffea 75c0 e51a 96c0 1e5d 59c0
00000110: 35ff a53e a01d bec0 407c 9ac0 19cc 62c0
00000120: f02b 6cbf 08e9 6fbd ac0a 8bbf 7d68 ca3c
00000130: 109a dcbd 481e e6bf e6d6 063e 9b5a 803d
00000140: 0682 f8bf a6ae e53e e10a 0f3d a168 8abf
00000150: 5701 27c0 55ee a0bf d78f 6f3e 15fd 88bf
00000160: 4930 3fbd 428b b7be a6d2 e6be 0396 413e
00000170: 0581 0f3f 6f12 7dbf b21f 57bf d3cf e23e
00000180: 0e69 143f 7557 20bf 5413 203f 5278 45bf
00000190: d36a 2ebf 192c 103f a01e 1f3e 54ac 85bf
000001a0: b736 083f 2411 853e 4a85 8fbe 8f64 013f
000001b0: ac68 fe3e 6e41 0c3f 5833 33bf a36a 563f
000001c0: 041c 643e 4604 9abd 1470 5cbf a45e 10bf
000001d0: 2a69 1b3f 7064 453f 312d 423f 1274 a0bf
000001e0: 8b76 803f 628f cc3f 408d 973f f94f a13f
000001f0: b07f c93f 3b72 913e 89eb 9b3e d794 e83f
00000200: 87ad f73e a529 b83e f025 d23f 90da 883f
00000210: dae1 913e c9eb 913f 8943 913f f8ad f73e
00000220: e4ae 023f fd36 c23f 5e2d 933f 42c4 aa3f
00000230: 2683 3a3e 52a0 623f 2ab5 403f fcd9 b13f
00000240: f8ce b83d 8dc7 823f a9b8 133e a020 693f
00000250: 9848 b53f e517 bf3d d86f 953d 0cc4 823f
00000260: 005f 03bb 8087 7a3e f502 8e3e d075 b5be
00000270: a229 343e 54a8 f0be 424d 323f 6bd6 49bd
00000280: 3d4b 0a3f 8ef4 713f 1d4f 833f 98de 5e3f
00000290: b381 7d3e d363 24bf 9e79 19be 2442 633f
000002a0: 0115 2b3e d169 7bbe 2ecb 683e 0e76 a0be
000002b0: 3a11 97bc 48bd a63d 17f2 ff3e a431 d6be
000002c0: b5fe 103f ba85 9f3e 8068 fcbf ef1b 0c3e
000002d0: b1cb a93e 16c4 433d 36f5 5fbf 2080 88be
000002e0: d956 be3d 51d5 1b3e 9a21 cbbd 60c1 a7bf
000002f0: 4dc1 7f3e e246 d8be de75 8bbd 1bcf b5bf
00000300: 312c 10bc ec25 323d cc19 113e 9392 e73e
00000310: 4d8c c03e de16 d63e 3bbf 433f 8a29 fdbd
00000320: b343 b03e 78b7 6fbe 8311 123f 323a 333e
00000330: e896 863e c518 fe3d 8e9e b23e 9f01 3f3e
00000340: 9e3e 913f 6087 0c3f 0d93 1b3f a01e 393f
00000350: dcf5 bc3e 017b 693e 23a2 953e 1976 253f
00000360: 9944 8b3e 8118 2d3e 0d6d bb3e b128 c63e
00000370: 08af f13e 8225 a53e 9190 493f 4ac4 d03d
00000380: f8f2 3c3e 463e 92be 7c25 363f ef99 113f
00000390: d713 a13e 9960 023f 8b25 273e d74b 1b3f
000003a0: d876 763f 0205 3d3d 6842 c43e 3b76 4a3f
000003b0: 725c b33d 1da1 0f3f 739d 2e3f 5109 c73e
-0.17446768 -0.19180433 -0.14760958 -0.25273746 -0.15736155 -0.19247621 0.12097018 -0.28202844
-0.48444298 -0.035869583 -0.8731345 -0.2171459 -0.26282662 -0.32965335 -0.48944247 -0.5078447
-0.049137358 -0.08760155 -0.24291065 -0.8295696 0.039377287 -0.3269144 -0.11889528 -1.0414596
-2.6018913 -1.9269718 -1.674495 0.083193295 -2.6192966 -0.092907086 -0.07655215 -2.698565
-0.99418557 -0.3879327 -2.7554133 0.16338736 -0.27225778 -0.100021124 -4.5021887 -1.137981
-0.24105515 -4.7166333 0.0068130083 -0.74701923 0.06846338 -1.028206 0.03600665 -2.9070451
-4.858898 -4.0746803 -4.7448964 -5.062782 -3.3199139 -5.5735126 -0.7138117 -3.8271692
-4.325221 0.34422183 -3.391574 -5.016863 -4.5011415 -5.0301566 -3.7478108 -5.481714
-1.4484589 -3.842468 -4.690783 -3.3963084 0.3242127 -5.9411163 -4.827667 -3.5437071
-0.92254543 -0.058571845 -1.0862632 0.024708027 -0.107715726 -1.7977991 0.13167915 0.062672816
-1.941468 0.4485981 0.034922484 -1.081318 -2.6094568 -1.2572733 0.23394714 -1.0702235
-0.046676908 -0.35848433 -0.45082587 0.18904881 0.56056243 -0.9885625 -0.8403274 0.44299182
0.579728 -0.6263345 0.6252949 -0.7713672 -0.6813175 0.5631729 0.15539026 -1.0443215
0.5320849 0.2598964 -0.2803138 0.50544065 0.49689233 0.5478734 -0.7000022 0.83756465
0.22276312 -0.07520346 -0.8610852 -0.5639441 0.6070734 0.7710638 0.75850207 -1.2535422
1.0036176 1.5981257 1.1839981 1.2602531 1.5742092 0.28407463 0.30453137 1.8170422
0.48374578 0.35969272 1.6417828 1.06917 0.28492624 1.1400081 1.1348735 0.48374915
0.5104811 1.5173031 1.149822 1.3341143 0.18214092 0.8852588 0.75276434 1.3894649
0.09023851 1.0217148 0.14425911 0.91065407 1.4162779 0.093307294 0.07296723 1.0216079
-0.0020045638 0.24465752 0.2773663 -0.35441446 0.17594007 -0.47003424 0.69649136 -0.04927675
0.54021055 0.94513786 1.0258518 0.870584 0.24756508 -0.6421482 -0.149878 0.887728
0.16707231 -0.24552085 0.22733757 -0.3134007 -0.018440831 0.08141571 0.49989387 -0.41834748
0.5663865 0.31156713 -1.9719391 0.13682531 0.33163217 0.047794424 -0.8748354 -0.26660252
0.092939086 0.15218093 -0.09918518 -1.3105888 0.24976082 -0.4224158 -0.06809591 -1.4203829
-0.008799599 0.043493196 0.14169997 0.45229015 0.3760704 0.4181432 0.7646367 -0.123614386
0.3442665 -0.23409832 0.5705797 0.17502668 0.26287007 0.12407068 0.34886593 0.18652962
1.1347234 0.54894066 0.60771257 0.72312355 0.36906326 0.22800829 0.29225263 0.6463333
0.27200773 0.16903879 0.36606637 0.3870292 0.4720385 0.3225518 0.78736216 0.10193689
0.1845206 -0.28563136 0.71150947 0.5687551 0.3146045 0.50928646 0.16322915 0.606626
0.9627509 0.046147354 0.38331914 0.79086655 0.08757867 0.56105214 0.68209 0.38874295

arith.constant2 f4 [5]
00000000: c690 8fbe 89d3 ef3e ef39 133d 2d5a fdbe
00000010: 418e 123f
-0.2804014 0.46841076 0.03594392 -0.4948286 0.5724831

sequential_1/dense_1_2/Add/ReadVariableOp f4 [10]
00000000: eb65 b13f 6dd7 343f d665 2a3f 12ca c63f
00000010: 92cd 073f ac04 693e 66f3 a13e ac07 853f
00000020: 32c1 4bbf c6a9 fb3e
1.3859228 0.70641214 0.6656164 1.5530417 0.5304805 0.22755688 0.3163101 1.0392966
-0.7959167 0.49152964

sequential_1/dense_1/Add/ReadVariableOp f4 [24]
00000000: 9029 81bd f4ee 02be 438e 1fbe 486e fcbd
00000010: 9a34 1bbe c276 a0bd 0331 50bd 6120 20be
00000020: f0d9 14be 0152 363e c92e 03be 9854 abbd
00000030: 7159 efbd 4669 d6bd 6f5c 03be 19dc a6bc
00000040: 2bb2 5abd ee4c d2bc 86e6 b5bd 2737 2dbe
00000050: 8647 443e f6a5 c5bc 433f f2bc 0451 13be
-0.063067555 -0.12786466 -0.15581612 -0.12325722 -0.15156785 -0.07835151 -0.05082799 -0.15637352
-0.14536262 0.1780472 -0.12810816 -0.08365744 -0.116869815 -0.10469298 -0.1282823 -0.020368623
-0.05339257 -0.025671449 -0.088818595 -0.1691557 0.19167909 -0.024126988 -0.029571181 -0.14386374

sequential_1/dense_1/MatMul f4 [24, 32]
00000000: 40e1 51be f7d1 84be fcf3 09bf 03e6 8ebf
00000010: 830f 6cbf add2 4ebf 8a75 6bbf 74ba 09bf
00000020: e695 aebe 33d3 12bf c258 17be 1113 f4be
00000030: 73b0 f7b9 e6a2 e4be 0db6 033f 0f8f e1be
00000040: e687 593f 9367 8abe 4359 663f 9da9 48be
00000050: ea9f 573f 6f1a 8dbe 3ef7 493f 0ed2 25bc
00000060: 1dac 373f f58d ae3b df56 0d3f a55d d83e
00000070: 5495 033f 0a87 ef3e 70a9 3a3e befa 623e
00000080: 0491 763e aa3c 5dbe aa40 b4bf 77b6 a23f
00000090: cd11 c5bf d0b7 503f a7b2 abbf ed8e 3c3f
000000a0: 7f2a c6be 9d21 873f 1fe8 e6be 61f1 183f
000000b0: fab6 acbd df2e fd3e 32b4 243e 62d1 c33e
000000c0: bb28 bb3e 0557 a13e c2c3 063f 0b22 613e
000000d0: b33b 093f 0f00 fc3d 94a0 183f 9386 b83d
000000e0: f8c0 313f ad87 e73c e377 513f 5348 87bd
000000f0: f262 833f 7bb0 143d d439 973f dd98 6f3e
00000100: c4fa ba3d 452d 7bbe 104a 43bf cc6a 1cbe
00000110: e9db d5bf 20df f4be d8a3 85bf 39ce a3be
00000120: 7b44 44bf 4ab4 15be 5488 14bf dbd7 d3be
00000130: 19e9 9abe 6e5a fabe 0017 c33c 4926 9dbe
00000140: 4c45 8b3e cddc c2be ea3e 0d3f c228 2ebf
00000150: 58cd 3c3f 1072 1cbf e1f4 673f b5ea 00bf
00000160: a037 333f 1594 05bd fe27 843f f247 5dbe
00000170: 0b5e 8a3f dcee 913e cea0 3f3f 8213 9f3e
00000180: 8088 fc3c c80b 7f3e cf08 663f a892 7abf
00000190: 6096 ab3f a7f4 93bf bd42 843f ce89 9ebf
000001a0: bed4 503e c6e2 73bf e9f5 7d3e 657c 06bf
000001b0: 7aa8 05bd a364 ddbe 2c5a 8ebd 9aa5 1abe
000001c0: 322d b7be 218f d8bd fa75 12bf 5909 7dbd
000001d0: f02b 35bf f044 a8bd 91d3 2fbf 773a ba3c
000001e0: 0004 2cbf d1bb c63c a4b2 0ebf 433c 093d
000001f0: ed11 d0be bb49 af3d e105 f9be d1cf c3be
00000200: 1db4 99be 7baa 07be 9a15 eebf c47e 9abf
00000210: 9b70 ddbf f4ab e2be 9ad9 d3bf aa4c ffbe
00000220: 36dc 9abf 7350 acbe 1da9 59bf 77ad 5fbb
00000230: 9abd 2ebf 7bda a6bd ebc9 2fbf 1efd ed3b
00000240: 84eb c5be c899 2b3e a076 b0bd 41d1 5b3e
00000250: 8da8 163d 7a5e 943e 9084 6c3d a68b bd3e
00000260: 752d 91bd 3d24 943e 12e3 743c e40a 223f
00000270: fb67 1fbe 0e9f 443f 9052 22bf 775f 673f
00000280: 90b5 7e3d ac2c 933e 305a 493f 2c5c e73d
00000290: 707e ce3f 78fc 9f3e 5501 953f eb13 713e
000002a0: 8c61 3d3f b457 1e3e 779d c03e 3771 903e
000002b0: 82f0 023e 6771 983e 7fac 24be 10f6 d83e
000002c0: d830 63be dc3c c33e 6932 8bbe 870f b73e
000002d0: 15fd e1be a704 d53e 5180 b8be cea1 833e
000002e0: 6b37 13bf f2bc 7d3d 32ca 06bf 1719 cb3c
000002f0: a3f1 01bf 2cda d7bd 6e72 26bf f398 69be
00000300: 9204 833e c0fb 103e 1ac9 00bf 7ffa d5be
00000310: 8f70 92be b9cf 333e ab74 09be a01a 653d
00000320: 8cea aebd 526a c1bd 25b0 3ebc 31bc 12be
00000330: aa3e b93c 5306 febb f5d7 dabc 1fe0 01bd
00000340: 811e 8d3d 5b66 d43d ab95 7b3d 4b3c eb3e
00000350: be0c d73d f804 d43e f478 303e fd97 d13e
00000360: 4600 8e3d c062 5b3f f860 583d 7bd2 7a3f
00000370: 12dd 0bbc c88b d23f 0196 783c 60e4 f03f
00000380: 1323 3ebe 14fa 9b3e f45a a33f a3bf 2740
00000390: 0a60 383f 38d0 c43f b01b ba3f 79c6 b73f
000003a0: ad15 553f 3a0a 0a3f a28c 8a3f e3b4 e03e
000003b0: 2187 423f dcca e83c 3a7f 3d3f 5728 9dbe
000003c0: bcb0 1f3f 55c9 b2be 394a e93e 3189 babe
000003d0: 3268 ad3e 1866 c8be e9db 883e 0e9c d0be
000003e0: 3ec4 073e 6e37 b5be 3db2 9dbc 32e8 03bf
000003f0: 9c90 58bd 06f1 f6be d212 8abe 1bcb e9be
-0.20496082 -0.2594144 -0.53887916 -1.1163944 -0.9221117 -0.80790216 -0.91976225 -0.5380013
-0.34098738 -0.57353514 -0.14779952 -0.47670797 -0.00047242976 -0.44655532 0.5144966 -0.44054458
0.8497299 -0.27032146 0.8997995 -0.19595952 0.84228384 -0.2755923 0.78892887 -0.010120882
0.71747 0.005326981 0.5521068 0.42258945 0.5139973 0.46782714 0.18228698 0.22165963
0.24078757 -0.21605173 -1.4082234 1.2711934 -1.5396057 0.81530476 -1.3413895 0.7365559
-0.38704297 1.0557133 -0.4509897 0.59743315 -0.084333375 0.49449822 0.16084364 0.38245684
0.36554512 0.31511703 0.5264245 0.21985643 0.5360672 0.12304699 0.5962002 0.09010043
0.6943507 0.028262937 0.8182356 -0.066055916 1.0264571 0.036301117 1.1814523 0.23398156
0.09129861 -0.24528988 -0.76284885 -0.15275115 -1.6707736 -0.4782648 -1.0440626 -0.31993273
-0.7666699 -0.14619556 -0.5802052 -0.41375622 -0.30255964 -0.48897117 0.023814678 -0.30693272
0.27201307 -0.38059083 0.55174124 -0.6803094 0.7375083 -0.61111546 0.9060803 -0.50358135
0.7000675 -0.032611925 1.0324705 -0.21609476 1.080995 0.28502548 0.74854743 0.3106957
0.030826807 0.24906838 0.8985719 -0.9788003 1.3405266 -1.1559037 1.0332867 -1.2385805
0.20393655 -0.95267904 0.24800839 -0.5253356 -0.032631375 -0.43240842 -0.06950793 -0.15102234
-0.3577667 -0.10574175 -0.5721127 -0.061776493 -0.7077017 -0.08216274 -0.686822 0.022732956
-0.67193604 0.02425948 -0.55741334 0.033504736 -0.40638676 0.08558985 -0.48637298 -0.3824449
-0.30020228 -0.13248627 -1.8600342 -1.2069936 -1.729999 -0.44271815 -1.6550782 -0.49863178
-1.2098453 -0.33655128 -0.8502367 -0.0034130493 -0.6825806 -0.081471406 -0.6866748 0.00726284
-0.38656247 0.16757882 -0.08616376 0.21466543 0.036781836 0.2897833 0.05774361 0.37020606
-0.07088748 0.28933898 0.014946716 0.6329787 -0.15567009 0.768052 -0.6340723 0.9038004
0.06218487 0.2874502 0.7865324 0.11296877 1.6132336 0.31247306 1.1641032 0.23542754
0.7397697 0.15463144 0.37620136 0.28211376 0.12787059 0.2977402 -0.16081427 0.4237523
-0.22186601 0.3813237 -0.27186897 0.35754034 -0.441384 0.41605112 -0.36035398 0.25709385
-0.57506436 0.06194777 -0.52652276 0.024792237 -0.50759333 -0.1053966 -0.65018356 -0.22812252
0.25589424 0.14158535 -0.50306857 -0.41792676 -0.286015 0.17559709 -0.13423412 0.055933595
-0.0854083 -0.09444107 -0.011638676 -0.14329602 0.022612888 -0.0077522187 -0.026714304 -0.03170788
0.06890584 0.10371085 0.06142203 0.45944437 0.10500477 0.4141004 0.1723364 0.4093627
0.06933646 0.85697556 0.05282685 0.9797742 -0.008536594 1.6448908 0.0151724825 1.8819695
-0.18568067 0.30464232 1.2762132 2.6210716 0.72021544 1.5376043 1.45397 1.4357444
0.832362 0.53921854 1.0824168 0.43888006 0.7598744 0.028417043 0.7402226 -0.3069484
0.6237905 -0.3491923 0.4556444 -0.36432794 0.33868557 -0.3914039 0.26730278 -0.4074406
0.13258454 -0.35393852 -0.01925003 -0.51526177 -0.052872285 -0.4823076 -0.26967484 -0.4566277
