src/computer_vision/hand_pose_detection/keypoint_classifier (1).tflite (tflite, 5696 bytes, 6 tensors)

arith.constant f4 [3, 16]
-1.0729736 0.42542693 0.22588554 -0.31522435 0.1151037 0.27515242 -0.75779694 -1.4411452
1.0578616 -1.4347899 -0.6644589 0.98429096 -0.1412677 -0.33209893 -1.1510262 -0.85950035
-0.26377177 0.14362212 -0.35989773 0.21390817 0.99509156 -0.47899067 -0.9213345 1.1184697
-0.8359882 -0.04721177 -0.47963247 -0.6532928 -0.9844607 0.3400542 0.89113754 0.22044621
0.79058194 -1.2331034 0.1852427 0.45877165 -1.0169479 -0.057795603 0.5600805 0.2687124
-0.42568818 1.5818328 1.02385 -0.15159667 0.9075962 0.428685 -0.26215145 0.42463055
00000000: 3357 89bf 8fd1 d93e 8a4e 673e 1665 a1be
00000010: 7dbb eb3d c7e0 8c3e fbfe 41bf 7277 b8bf
00000020: 0268 873f 32a7 b7bf fa19 2abf 7efa 7b3f
00000030: 7ba8 10be df08 aabe d454 93bf 3708 5cbf
00000040: 180d 87be ad11 133e 8444 b8be be0a 5b3e
00000050: 52be 7e3f 443e f5be 94dc 6bbf 042a 8f3f
00000060: 5303 56bf 2161 41bd 6392 f5be 323e 27bf
00000070: 9e05 7cbf 961b ae3e 9721 643f a7bc 613e
00000080: 9463 4a3f 55d6 9dbf 43b0 3d3e 1ee4 ea3e
00000090: 592b 82bf 15bb 6cbd 7061 0f3f ac94 893e
000000a0: cdf3 d9be 7f79 ca3f 840d 833f 283c 1bbe
000000b0: 3958 683f 9a7c db3e b738 86be 2d69 d93e

arith.constant1 f4 [16, 32]
0.6282888 0.24449569 0.483783 0.0037499666 0.28853947 -0.030196369 -0.8434625 -0.21699017
0.09144181 -0.38445115 0.17412922 -0.011809583 -0.013534903 -0.19507863 -0.50253695 -0.08087736
0.12423372 0.123961955 0.41695666 0.50436634 -0.46145567 -0.7939884 -0.2872391 0.07157694
0.04143825 -0.33514866 -0.08559072 0.564827 -0.25593734 -0.140627 -0.70894414 0.016427275
-0.6263622 0.105695345 -0.15286975 -0.24691883 0.039672825 0.066069394 1.0455173 -0.022443026
-0.10570185 0.2960155 -0.2800722 -0.29546255 -0.11808241 -0.022574455 1.175154 0.33544794
-0.16103029 0.29576176 -0.0882879 -0.3843558 0.9504089 0.844753 0.2959431 0.03913407
0.48841795 -0.3036307 0.2176722 -0.60915446 -0.10697444 0.27763775 0.56707996 0.30839598
0.2692957 -0.050897907 0.018222155 0.07035321 0.51018226 0.1818091 -0.21042448 -0.31623286
0.14424178 -0.12026514 -0.24290222 0.8119529 0.38482586 0.06267506 -0.11735019 0.014660865
0.13091859 0.36542028 -0.00324605 -0.360106 0.0033187428 -0.026319776 0.28485343 0.6867059
0.20406829 0.06881889 0.1856626 0.08297279 -0.2643907 0.038481504 0.1291352 -0.10128779
-0.32970697 0.13735536 0.29352504 0.18208525 -0.1901237 0.2185379 0.13958873 -0.26477873
0.33129814 -0.11322885 0.2649357 -0.24330118 -0.3310687 -0.0020796955 0.3897008 0.058077604
0.31847003 -0.20336936 0.052094527 0.071182884 -0.20554917 -0.07932163 -0.2372281 -0.18847638
0.2929359 0.0728521 0.08437303 -0.26681164 0.25021622 -0.14160278 -0.34347007 0.14378446
-0.1866841 0.33224022 0.5847386 -0.17656317 -0.30424628 -0.30602548 0.31270677 0.17345586
0.0864892 0.41351068 -0.024686754 -0.6527791 -0.46790117 -0.18369357 0.35874715 -0.17985341
0.07509783 0.47930175 -0.14465685 0.35864946 0.7223522 0.6188743 0.19034138 -0.6037871
0.49329102 0.30387613 0.047400624 -0.05990613 -0.12599817 -0.16784114 0.7297753 -0.046087325
-0.28698933 -0.3301714 0.05290673 0.103824556 0.22491236 0.24516162 -0.140583 -0.13526854
-0.21333158 0.116852015 0.17730662 0.24219006 -0.15492761 -0.16572402 0.34006882 0.21622428
-0.18011877 -0.11851744 -0.19299048 -0.38447982 -0.23432696 -0.25416702 -0.13600636 -0.17917688
-0.19020122 0.13649106 -0.3028515 -0.14715177 0.050343394 0.0938645 -0.12322894 -0.31649908
0.5901901 0.3101886 -0.043860026 -0.27226365 0.2755196 -0.0035870373 -0.5416576 0.21167704
-0.29072222 -0.42924035 0.17716417 0.5310643 0.38954207 0.33364812 -0.8150042 -0.012550563
-0.25490597 0.2100358 -0.057450905 0.6655025 -0.5982319 -0.87778866 -0.11834961 0.403115
-0.32537356 0.34878328 0.24272123 0.4162534 -0.19942851 -0.17429501 -0.57655525 0.18323392
-0.062703356 0.0857188 0.75623155 -0.20915592 -0.7516232 0.19842121 0.32484132 -0.16155173
-0.21621181 0.36745307 -0.34738055 -0.9693375 -1.259536 0.09928304 0.572861 -0.339359
-0.18002385 0.18307872 -0.1438382 1.2090042 0.5216313 0.45266545 0.24367759 -1.1689106
0.29212153 -0.05471781 0.3212658 0.8841122 -0.20023689 0.11223233 0.21309939 -0.45246112
00000000: 89d7 203f 145d 7a3e 68b2 f73e 00c2 753b
00000010: 72bb 933e 605e f7bc 29ed 57bf ac32 5ebe
00000020: d845 bb3d c8d6 c4be ee4e 323e fb7c 41bc
00000030: 7fc1 5dbc b1c2 47be 43a6 00bf 08a3 a5bd
00000040: 406e fe3d c4df fd3d 587b d53e 271e 013f
00000050: eb43 ecbe d342 4bbf 0111 93be ee96 923d
00000060: 28bb 293d 9b98 abbe 304a afbd 8198 103f
00000070: 380a 83be 8600 10be 5d7d 35bf 7e92 863c
00000080: 4659 20bf cd76 d83d e389 1cbe 4ad8 7cbe
00000090: f97f 223d 644f 873d 83d3 853f 70da b7bc
000000a0: 367a d8bd 588f 973e a065 8fbe de46 97be
000000b0: 31d5 f1bd 10ee b8bc 726b 963f d5bf ab3e
000000c0: 20e5 24be 166e 973e 49d0 b4bd 49ca c4be
000000d0: ff4d 733f bc41 583f db85 973e 0c4b 203d
000000e0: eb11 fa3e 7c75 9bbe 76e5 5e3e 8cf1 1bbf
000000f0: 6a15 dbbd 8926 8e3e 272c 113f 14e6 9d3e
00000100: 20e1 893e 537a 50bd a146 953c 5815 903d
00000110: 4e9b 023f 2a2c 3a3e 8479 57be 46e9 a1be
00000120: 1eb4 133e 924d f6bd 5cbb 78be 25dc 4f3f
00000130: e507 c53e c85b 803d 4c55 f0bd 2034 703c
00000140: 860f 063e 5e18 bb3e afbb 54bb d05f b8be
00000150: 447f 593b 929c d7bc 4fd8 913e f5cb 2f3f
00000160: 47f7 503e ebf0 8c3d 561e 3e3e a3ed a93d
00000170: 385e 87be c89e 1d3d 053c 043e f96f cfbd
00000180: 5acf a8be e2a6 0c3e ea48 963e 8e74 3a3e
00000190: caaf 42be 66c8 5f3e 59f0 0e3e 1491 87be
000001a0: e99f a93e 87e4 e7bd a7a5 873e f223 79be
000001b0: d681 a9be 804b 08bb dd86 c73e c8e2 6d3d
000001c0: 810e a33e 0f40 50be 1261 553d 55c8 913d
000001d0: 7b7b 52be 6173 a2bd eceb 72be f4ff 40be
000001e0: b2fb 953e 7b33 953d c4cb ac3d 899b 88be
000001f0: 571c 803e 5200 11be 4fdb afbe 3c3c 133e
00000200: 1e2a 3fbe 641b aa3e 6eb1 153f facc 34be
00000210: 2bc6 9bbe 5faf 9cbe 1a1b a03e 6a9e 313e
00000220: 4021 b13d acb7 d33e e03b cabc 881c 27bf
00000230: be90 efbe 2b1a 3cbe b5ad b73e 7e2b 38be
00000240: e4cc 993d 0a67 f53e ed20 14be e7a0 b73e
00000250: 13ec 383f 8c6e 1e3f dae8 423e cb91 1abf
00000260: a490 fc3e a795 9b3e 2827 423d 2160 75bd
00000270: aa05 01be 8cde 2bbe 8ed2 3a3f 10c6 3cbd
00000280: 44f0 92be 3a0c a9be bab4 583d f8a1 d43d
00000290: 6d4f 663e a60b 7b3e fdf4 0fbe d683 0abe
000002a0: 9873 5abe 1c50 ef3d de8f 353e ac00 783e
000002b0: 58a5 1ebe 8fb3 29be 801d ae3e e669 5d3e
000002c0: 0e71 38be 46b9 f2bd 4c9f 45be 8ada c4be
000002d0: 68f3 6fbe 2e22 82be 4045 0bbe 257a 37be
000002e0: 1cc4 42be 50c4 0b3e 5a0f 9bbe f4ae 16be
000002f0: e034 4e3d 083c c03d 745f fcbd 2b0c a2be
00000300: b316 173f 0ad1 9e3e 92a6 33bd 2466 8bbe
00000310: e810 8d3e 8014 6bbb 13aa 0abf dec1 583e
00000320: 8bd9 94be 64c5 dbbe 866a 353e d4f3 073f
00000330: 0f72 c73e edd3 aa3e 1ea4 50bf e0a0 4dbc
00000340: 0983 82be a013 573e a451 6bbd 5f5e 2a3f
00000350: ba25 19bf c2b6 60bf 4861 f2bd 1765 ce3e
00000360: 5d97 a6be b993 b23e ea8b 783e 2a1f d53e
00000370: fd36 4cbe 647a 32be 2099 13bf aca1 3b3e
00000380: 9e6a 80bd 578d af3d 6498 413f f82c 56be
00000390: 616a 40bf ee2e 4b3e 9a51 a63e d16d 25be
000003a0: a166 5dbe cf22 bc3e dddb b1be 8126 78bf
000003b0: 7a38 a1bf e854 cb3d 05a7 123f 76c0 adbe
000003c0: 2c58 38be fd78 3b3e 524a 13be a6c0 9a3f
000003d0: a189 053f c4c3 e73e 9e86 793e dd9e 95bf
000003e0: f490 953e c81f 60bd f37c a43e 2d55 623f
000003f0: e60a 4dbe 10da e53d ba36 5a3e fca8 e7be

arith.constant2 f4 [3]
0.15631299 -0.13000698 -0.09172099
00000000: 8310 203e 8d20 05be 37d8 bbbd

sequential_1/dense_1_2/BiasAdd/ReadVariableOp f4 [16]
0.20441611 0.19565369 0.12429772 -0.010839345 0.21189961 -0.03876772 0.23063105 0.20590699
0.24024473 0.07650135 0.10900467 0.27118328 0.29636902 -0.04749967 0.12732312 0.15481597
00000000: 7552 513e 7159 483e ce8f fe3d 8297 31bc
00000010: 36fc 583e e7ca 1ebd 8c2a 6c3e 48d9 523e
00000020: b702 763e bdac 9c3d d73d df3d 89d8 8a3e
00000030: aebd 973e 048f 42bd fe60 023e 1488 1e3e

sequential_1/dense_1/BiasAdd/ReadVariableOp f4 [32]
-9.65971e-05 0.15721631 -0.02413097 0.0 -0.07637876 0.0 -0.04426064 0.0
0.0 -0.06926955 0.0 -0.039091527 -0.0042918045 0.0 -0.034674104 0.0
-0.005091937 0.24779311 -0.16681334 0.073457666 0.00969368 -0.06411156 0.0 0.0646332
-0.10564182 -0.010123546 0.0 0.022440664 0.0 0.0 -0.12065611 -0.09622106
00000000: 2c94 cab8 50fd 203e 50ae c5bc 0000 0000
00000010: 786c 9cbd 0000 0000 a54a 35bd 0000 0000
00000020: 0000 0000 32dd 8dbd 0000 0000 701e 20bd
00000030: 44a2 8cbb 0000 0000 6f06 0ebd 0000 0000
00000040: 43da a6bb 7abd 7d3e 1ed1 2abe f970 963d
00000050: 3ed2 1e3c ec4c 83bd 0000 0000 695e 843d
00000060: bd5a d8bd 3bdd 25bc 0000 0000 7cd5 b73c
00000070: 0000 0000 0000 0000 8d1a f7bd 8c0f c5bd

sequential_1/dense_1/MatMul f4 [32, 9]
0.08918535 0.17991267 0.49406224 -0.1170359 0.5801972 0.047788117 -0.14526092 -0.46981886
-0.1195281 0.39037713 0.20737942 0.1705245 -0.22114618 0.36405027 -0.33716393 0.52344555
0.6588536 0.17441408 0.7356503 -0.092945546 -0.22773798 0.63643223 -0.82580686 -0.33343253
0.098326825 0.5595133 0.18566014 0.01492542 0.20186093 -0.2800542 0.12382117 0.10538396
0.211234 -0.30372876 0.0052145123 -0.29870075 -0.3305347 -0.31722566 -0.27294728 -0.6844902
0.87314063 0.2358241 0.13174029 -0.28275484 -0.05669478 0.07237083 0.2816688 -0.0981569
-0.32440326 -0.14017299 0.32390717 0.07791653 -0.23791353 0.07079846 -0.2746294 -0.4937282
-0.48321608 0.23832043 -0.5402292 -0.019106643 0.1736897 -0.40662622 0.45276937 0.109532475
0.31310657 -0.27322516 0.30379978 -0.29594302 -0.33170074 -0.22988255 0.18288395 0.13487735
-0.09312725 0.029485196 -0.07805061 0.039131135 -0.25830063 0.10641953 -0.080833405 -0.020121694
0.25831416 0.16970107 -0.4261756 -0.08323442 0.008975975 -0.93668735 -0.060472727 0.16782327
-0.28502047 0.22098517 -0.25020218 0.27598187 -0.23074737 0.1904724 0.20238486 -0.09888664
-0.18357359 0.1270164 -0.049196094 -0.42170888 0.44873068 -0.46063763 -0.64986473 0.76096433
-0.11715508 0.31791806 -0.28035176 -0.24918364 -0.3147639 0.23084371 0.32321572 -0.6039277
0.5983294 0.26460257 0.1290097 -0.32542196 -0.40358415 0.3639305 -0.13099885 -0.3103476
0.07996556 0.3489546 -0.2505285 -0.33115414 0.22305563 -0.031700134 0.015381545 -0.6624146
-0.013871069 0.14027525 -0.64631736 -0.40188873 -0.27249017 0.3429682 -0.11657811 -0.012213498
-0.0024765134 -0.22360402 0.3510783 -0.35098663 0.33272305 0.06784448 -0.34742403 -0.35681772
0.025034312 0.19147731 -0.14020316 -0.25957155 0.37656218 -0.15451023 -0.14002077 -0.27828628
-0.17527519 0.20167631 -0.06443804 0.21958272 -0.031697936 -0.35002542 -0.53136945 0.34007624
0.7007158 0.5397346 -0.22763251 0.72033125 0.34674615 -0.19046077 0.58747256 0.09464679
0.19658908 0.079774484 -0.0023368497 0.60623616 0.28539124 0.28330877 0.604514 -0.78435844
0.14584334 0.25464314 0.28550565 0.20027056 -0.1842625 -0.52541673 -0.61709774 0.3226287
-0.52092344 -0.20306215 0.11332155 -0.244865 0.3367202 0.107052304 -0.5133291 -0.5090899
0.15875721 -0.75068045 -0.06336358 0.21676834 -0.08524385 0.4459943 0.05461347 -0.040239394
-0.29690126 0.3761026 -0.17496966 0.24186978 -0.15181124 -0.1684061 -0.38097957 -0.8310021
0.25582486 -0.017138164 -0.7429272 0.6191269 0.04738547 0.04620083 -0.5062208 -0.1631307
0.57226044 -0.41635886 -0.39052632 0.41359696 -0.5698084 -0.3706056 0.12047429 0.35144502
0.32061574 -0.36564836 0.27137312 -0.111450195 0.26360795 0.1750582 0.08189766 0.0048570335
-0.16709201 -0.1723787 -0.21896127 0.28535458 -0.091765165 0.044640988 0.36947265 0.293779
0.055746347 0.09872466 -0.31635085 0.07923095 0.569416 0.2840847 0.48377633 0.7520356
-0.07448246 0.04233121 -0.026510343 -0.09757175 -0.30798042 0.18838373 -0.05077496 0.22722629
00000000: cfa6 b63d 073b 383e baf5 fc3e 85b0 efbd
00000010: ce87 143f 79bd 433d 47bf 14be 198c f0be
00000020: 26cb f4bd 83df c73e 455b 543e f99d 2e3e
00000030: 2574 62be cc64 ba3e c0a0 acbe 8700 063f
00000040: a1aa 283f 9b99 323e 9453 3c3f 3c5a bebd
00000050: 2534 69be 39ed 223f 1468 53bf abb7 aabe
00000060: 935f c93d 433c 0f3f b11d 3e3e c089 743c
00000070: a2b4 4e3e 4463 8fbe f495 fd3d 8cd3 d73d
00000080: ba4d 583e 5682 9bbe 80de aa3b 4eef 98be
00000090: d83b a9be 676b a2be bfbf 8bbe c03a 2fbf
000000a0: 2586 5f3f df7b 713e ede6 063e 3ec5 90be
000000b0: c938 68bd 2837 943d e536 903e 7c06 c9bd
000000c0: 2f18 a6be 8289 0fbe 29d7 a53e b492 9f3d
000000d0: 9b9f 73be c8fe 903d 3a9c 8cbe f1c9 fcbe
000000e0: 1968 f7be 450a 743e 764c 0abf 8985 9cbc
000000f0: b6db 313e 5031 d0be 63d1 e73e 9052 e03d
00000100: 814f a03e 2be4 8bbe a58b 9b3e d885 97be
00000110: aed4 a9be 5566 6bbe ee45 3b3e 4a1d 0a3e
00000120: 80b9 bebd f08a f13c 00d9 9fbd f847 203d
00000130: fb3f 84be 7cf2 d93d fc8b a5bd 40d6 a4bc
00000140: c141 843e 1ec6 2d3e b033 dabe cf76 aabd
00000150: f80f 133c beca 6fbf 40b2 77bd ddd9 2b3e
00000160: 34ee 91be f049 623e 801a 80be 7f4d 8d3e
00000170: 0a49 6cbe 320b 433e fa3d 4f3e 1485 cabd
00000180: b7fa 3bbe 9610 023e d881 49bd 3aea d7be
00000190: 07c0 e53e b2d8 ebbe 895d 26bf 8fce 423f
000001a0: 01ef efbd 28c6 a23e 448a 8fbe ff29 7fbe
000001b0: bc28 a1be 4b62 6c3e 887c a53e 019b 1abf
000001c0: 1e2c 193f fd79 873e 1e1b 043e b59d a6be
000001d0: 95a2 cebe 1955 ba3e 9024 06be e1e5 9ebe
000001e0: fcc4 a33d 2daa b23e 4645 80be 098d a9be
000001f0: b268 643e 00d8 01bd e002 7c3c 0194 29bf
00000200: 7b43 63bc 51a4 0f3e 0e75 25bf 5cc4 cdbe
00000210: d583 8bbe 8799 af3e 81c0 eebd 201b 48bc
00000220: 004d 22bb 74f8 64be 89c0 b33e 85b4 b3be
00000230: ad5a aa3e 0cf2 8a3d 90e1 b1be d0b0 b6be
00000240: c214 cd3c a112 443e 6b91 0fbe 90e6 84be
00000250: c2cc c03e ee37 1ebe 9b61 0fbe 8a7b 8ebe
00000260: 577b 33be 3c84 4e3e 17f8 83bd 4bda 603e
00000270: b2d5 01bd 8836 b3be d407 08bf 791e ae3e
00000280: 1c62 333f 0c2c 0a3f 7f18 69be a167 383f
00000290: b688 b13e 2608 43be 9a64 163f 2dd6 c13d
000002a0: a64e 493e ce60 a33d d525 19bb 4b32 1b3f
000002b0: cd1e 923e d90d 913e 6ec1 1a3f b7cb 48bf
000002c0: f557 153e 9660 823e cc2d 923e ba13 4d3e
000002d0: 4faf 3cbe b681 06bf 1efa 1dbf 972f a53e
000002e0: 3d5b 05bf 86ef 4fbe 2115 e83d e4bd 7abe
000002f0: 9766 ac3e 3d3e db3d 8969 03bf b753 02bf
00000300: 4091 223e 982c 40bf c4c4 81bd 85f8 5d3e
00000310: 5494 aebd 5d59 e43e 60b2 5f3d 10d2 24bd
00000320: 7103 98be 8590 c03e 3f2b 33be b6ac 773e
00000330: 6874 1bbe a672 2cbe c10f c3be 8ebc 54bf
00000340: 7afb 823e 5665 8cbc 7a30 3ebf 1a7f 1e3f
00000350: 4417 423d 153d 3d3d b097 01bf bc0b 27be
00000360: a97f 123f fd2c d5be 11f3 c7be fbc2 d33e
00000370: f7de 11bf 04c0 bdbe 39bb f63d 9af0 b33e
00000380: bf27 a43e 4336 bbbe 6bf1 8a3e 0040 e4bd
00000390: 9ff7 863e 7542 333e f6b9 a73d c027 9f3b
000003a0: 2b1a 2bbe 0b84 30be 6237 60be ff19 923e
000003b0: 60ef bbbd 78d9 363d 852b bd3e 336a 963e
000003c0: 4856 643d 2830 ca3d bdf8 a1be d643 a23d
000003d0: 3fc5 113f 8d73 913e 88b1 f73e 6885 403f
000003e0: 438a 98bd 7e63 2d3d 382c d9bc b3d3 c7bd
000003f0: 9caf 9dbe aae7 403e 68f9 4fbd 02ae 683e
