modules/camerax/ios/assets/keypoint_classifier_FINAL.tflite (tflite, 6588 bytes, 6 tensors)

arith.constant f4 [4, 10]
000000 19 47 ad be 1e 5d 7a 3f a0 bf 6a 3f 05 47 29 be
       -0.33843306 0.97798336 0.91698647 -0.16530998
000010 d1 85 82 bf 6b f1 85 3f df aa 67 3f 5c a4 1d bf
       -1.0197088 1.04643 0.90495104 -0.6157892
000020 bc 6e 89 3e c7 4e ab bf 54 2a 1d 3f bc 5e 9d be
       0.26842296 -1.3383416 0.6139271 -0.3073634
000030 fe 93 7e bf 40 da d7 be 4b 64 44 3e 6a 94 b4 be
       -0.9944457 -0.421587 0.19178884 -0.3526948
000040 42 0d f7 be a9 ec 7e 3f 50 93 88 bf 84 ee 91 3d
       -0.48252302 0.99579865 -1.0669956 0.07125571
000050 c0 77 cc be 30 3f 64 bf 21 c2 56 be 28 67 6d bf
       -0.39935112 -0.89158916 -0.20972492 -0.9273553
000060 71 7d 0e 3e 8c 21 e2 be 6c 22 e1 3e 31 b4 a2 bf
       0.1391504 -0.4416622 0.43971574 -1.271124
000070 95 03 e7 3e 56 99 93 3f a4 f2 67 c0 47 62 17 bf
       0.4511992 1.153117 -3.6241846 -0.59134334
000080 dd 52 74 bd f3 7c 93 3e 4c da 17 be 54 36 b3 be
       -0.059649337 0.28806266 -0.14829367 -0.35002387
000090 a4 38 ea 3e 71 86 a7 bf 76 45 86 bf d3 22 54 bf
       0.45746338 -1.3087903 -1.0489948 -0.8286564

arith.constant1 f4 [10, 20]
000000 56 2d 51 3f 3c 1c 71 3f a7 a4 e0 be a9 e4 c3 3d
       0.817098 0.9418371 -0.4387562 0.09565098
000010 bd b7 9e bd c3 d2 73 3f 0c 6c 3b 3e af 10 4f bd
       -0.07749889 0.9524347 0.18302935 -0.05055302
000020 2f 02 45 be 1d d4 92 3e 6a 8e f2 3e a8 44 c8 3e
       -0.19239114 0.28677455 0.47374278 0.3911488
000030 0e 61 ea 3e 17 d4 5a bd a8 3d 36 bc a4 e2 bc 3e
       0.45777172 -0.05342492 -0.011123098 0.36891663
000040 f2 47 ba be 23 16 f3 3e 36 86 da 3c d4 0b 87 be
       -0.36383015 0.47477826 0.026675325 -0.26376212
000050 71 d0 77 bf 5d c1 0e 3f f4 3f 9f 3e a1 1b bf 3c
       -0.9680243 0.557638 0.3110348 0.023328604
000060 32 39 ba 3f 8f 42 09 3e 0d 1d e1 3e 79 ba a3 3e
       1.4548705 0.13404296 0.43967476 0.31978205
000070 87 fe 0f 3f b3 e9 d1 3d ce a9 d2 3e 75 a0 37 3f
       0.5624775 0.10249653 0.41145176 0.71729213
000080 4c 7e e2 be 3f d5 44 bf 77 44 d2 3e 81 f8 a5 be
       -0.44236982 -0.7688789 0.4106786 -0.32416156
000090 75 11 34 3e 0d 97 70 bf 2c e1 71 3d 4d 6c 27 3f
       0.17584784 -0.93980485 0.05905263 0.6539963
0000a0 84 d4 db be bc 67 c4 bd 4a 1b 30 3f e7 86 44 be
       -0.42935574 -0.09590098 0.6879164 -0.19192086
0000b0 1b 45 ae 3f 64 fa 83 3e c1 80 8f bd e2 01 26 3c
       1.3614839 0.2577697 -0.0700698 0.010132285
0000c0 2f e4 a8 3f a5 ba ce ba 94 52 c4 3e 30 2c 9b 3f
       1.3194636 -0.0015772177 0.38344252 1.212286
0000d0 f7 a0 6d be 61 05 56 bf 14 af d6 3d 4e d0 6f be
       -0.23205934 -0.8360196 0.10482612 -0.23419306
0000e0 58 cb 66 3e f3 f3 43 3e 09 e7 a1 be f6 5b a4 3f
       0.22538507 0.19136028 -0.31621578 1.2840564
0000f0 7d 1e 21 3d 4b 8e 57 be 07 2d a6 3d f3 af 8a be
       0.039335717 -0.21050374 0.08114057 -0.27087364
000100 a6 66 7c bd 33 ce 2d 3e 5b a0 e4 be 67 3e 21 bf
       -0.06162133 0.1697319 -0.44653592 -0.62985843
000110 ec 38 30 3f 50 26 d5 be 80 b0 9a be 9d 5d 17 be
       0.68836856 -0.41630793 -0.30212784 -0.14781804
000120 89 5f 01 3f 18 e6 4d 3e 2f 2c d5 be a7 03 67 3e
       0.505364 0.20107305 -0.41635272 0.22559987
000130 8c 79 b8 3d 5f 0f 6c 3d 7d d1 92 3d 87 fc 05 3e
       0.09007558 0.057631847 0.07168863 0.13084613
000140 48 b6 fc be c4 77 95 bb 21 50 92 bf f5 8d d8 be
       -0.4935782 -0.0045613963 -1.1430703 -0.42295805
000150 de e5 51 bf 3e ff fa bd fb 4e 0f bf a8 2b 4a be
       -0.81991374 -0.12255715 -0.5597989 -0.19743216
000160 ef 94 33 bf b4 8e 25 3f 15 26 9a bf e1 40 fd 3d
       -0.7014913 0.6467087 -1.2042872 0.1236589
000170 e2 82 90 3e 56 a0 6d 3e dc f2 ad 3e d1 12 bc be
       0.28224856 0.23205695 0.3397435 -0.36733106
000180 4d a4 15 bc e2 b0 d3 bf cd f7 29 be cd db 17 bf
       -0.009133411 -1.6538355 -0.16598435 -0.59319764
000190 58 58 f9 be f0 14 00 3e 19 d1 35 3e 74 3f 0e 3f
       -0.48700213 0.12507987 0.17755546 0.5556557
0001a0 8f 1a d8 3f 5a 35 ab 3e 38 5a cf bc 13 b3 52 3e
       1.6883105 0.33439142 -0.025311574 0.20576124
0001b0 f4 e0 46 3f 36 55 70 3e 74 91 aa 3e c4 66 7c 3f
       0.77687 0.23470005 0.33314097 0.9859431
0001c0 cd 54 b7 be 7f 7d 8a bf 22 a1 34 3e 4d 05 18 3e
       -0.35806885 -1.0819548 0.17639592 0.14845772
0001d0 2f 24 83 3d ec 44 4d bf 02 ca b6 be 99 d6 bf 3f
       0.06403386 -0.8018329 -0.35700995 1.4987365
0001e0 03 ee fc bb f9 92 3c be 7c b3 5f 3f d7 7f d2 be
       -0.007718803 -0.1841544 0.87383246 -0.4111316
0001f0 78 af 71 3e 12 5d cd bd 2d 3e 7a bf 2b e7 3c bf
       0.23602092 -0.100275174 -0.9775112 -0.73790234
000200 87 54 7e 3f 42 9a 61 bd df 80 dd 3d c9 62 97 be
       0.9934773 -0.055078752 0.10815596 -0.29567555
000210 db 0d 60 3e 06 3e 79 be 5e 9f 29 3e 8a ac 21 3f
       0.21880285 -0.24340066 0.165647 0.631539
000220 96 37 07 3d 31 a5 9f 3f c7 39 4f be 92 9f 9b be
       0.033011995 1.2472287 -0.20236884 -0.3039518
000230 7f 9a 9a 3e f4 f2 eb 3d b9 f4 97 bf 02 25 ba 3b
       0.30195996 0.11520949 -1.1871558 0.005680681
000240 17 5b af bf de 48 a7 bc 9d ad 37 3c 03 d7 92 3e
       -1.3699673 -0.020420488 0.011210826 0.28679666
000250 6e 1e 7b bf 48 99 48 bf 03 8b 59 bf f3 3d f3 be
       -0.98093307 -0.7835889 -0.8497774 -0.475082
000260 fb 7b 91 bf ac f6 83 3f 45 c1 16 3f 0a a1 29 3f
       -1.1365961 1.0309653 0.58888656 0.6626135
000270 27 cb 2d 3f 93 e6 8f bf 1b 1a 04 3f 48 36 51 bf
       0.6788811 -1.1242241 0.51602334 -0.8172345
000280 6f e5 c4 bf c9 bd 15 bd fd 53 10 3f 24 ce f8 3e
       -1.5382518 -0.036557946 0.56378156 0.48594773
000290 21 e9 5a 3f 5c 61 8d be 44 f9 37 3f 61 c7 2d 3f
       0.85511976 -0.27613342 0.71864724 0.67882353
0002a0 ff 1a 84 3d ad 3a 06 bf 72 70 0f 3f 6b ac 90 3e
       0.064504616 -0.5243328 0.5603095 0.28256544
0002b0 e7 27 50 be ef 45 7b bf 8a 0a 80 39 c6 19 b7 bf
       -0.20327722 -0.98153585 0.00024421915 -1.430474
0002c0 8d 18 b1 bc 51 d6 4d 3b 3f f1 56 3b f0 55 b0 3e
       -0.021618152 0.003140826 0.0032797602 0.34440565
0002d0 c1 5a 20 be ef 4c 9c bf d9 56 f7 3e fd cc bd 3e
       -0.1565962 -1.2210978 0.48308447 0.37070456
0002e0 7e f6 6b bf 87 47 22 bf b8 3c 70 3e a8 f9 cb 3e
       -0.9217299 -0.6339039 0.23460662 0.3983891
0002f0 ed a8 8e 3e d0 18 27 bf 8d b6 21 3f a4 9a c1 be
       0.27863255 -0.65272236 0.63169175 -0.37813294
000300 4d 4c 7d 3e 6c 58 68 3f 18 28 8b bf bd ca 8c be
       0.24736138 0.9075992 -1.0871611 -0.27498427
000310 2e 65 d1 bf e8 d9 3f 3f c7 5f 63 3f a6 40 1c bf
       -1.6359003 0.74941874 0.8881802 -0.61036146

arith.constant2 f4 [4]
000000 c4 90 67 be a6 47 2f 3e 7b 17 48 3e fb 22 63 be
       -0.22613817 0.17117175 0.19540207 -0.22181313

arith.constant3 f4 [10]
000000 7c 28 31 3e b0 43 d1 bd fb 6f 47 be 10 03 49 be
       0.173006 -0.102179885 -0.19476311 -0.19630075
000010 40 5e ac bd e1 4f 69 be 97 37 b4 be d8 01 6f 3e
       -0.08416414 -0.22784378 -0.35198662 0.23340547
000020 f5 ba e8 3e fa 47 b2 3e
       0.45455137 0.3482054

sequential_15_1/dense_45_1/BiasAdd/ReadVariableOp f4 [20]
000000 91 28 37 3d 7d 68 0d 3d 9c 27 42 be bf b5 99 bd
       0.04471642 0.034523476 -0.18960422 -0.075053684
000010 9e b7 8f be fc 70 60 be 3f d1 82 bc ec 03 97 be
       -0.28069776 -0.219181 -0.015968917 -0.2949518
000020 74 f1 8a be a5 b7 92 be 66 64 b3 bc 6f 1f 97 bc
       -0.2713734 -0.28655735 -0.02189846 -0.018447606
000030 b5 8e 51 bd 8b 37 58 3d c7 63 b7 3d 33 d9 fb 3d
       -0.051161487 0.052787345 0.08954578 0.12297287
000040 ae d4 04 3e b4 e9 2f be b7 c4 57 3e c4 29 b8 3d
       0.12971756 -0.17178994 0.21071135 0.08992341

sequential_15_1/dense_45_1/MatMul f4 [20, 42]
000000 d0 bc ef 3d 68 91 aa bd 39 21 4f 3e 02 5a b9 3e
       0.11705935 -0.08328515 0.20227517 0.36201483
000010 89 c0 cc bd b5 62 a4 3e a6 1e 2e bd 0a 45 81 be
       -0.09997661 0.32106557 -0.042509697 -0.25247985
000020 5a f2 1c be 63 74 cf 3e 46 78 d3 3e c2 40 5c be
       -0.15326825 0.40518484 0.413027 -0.21509078
000030 8a f4 07 3d 77 9b ef 3d 17 36 83 bd 33 9d 72 3e
       0.033192195 0.116995744 -0.06406801 0.23692779
000040 97 28 43 bd e1 a3 aa 3e 27 87 c2 3e 5f 18 91 be
       -0.04764613 0.33328155 0.37993738 -0.28338906
000050 ef 10 e9 3d 97 fb 88 3d a6 8a e5 bc 5b c0 46 be
       0.11380183 0.06688612 -0.028020214 -0.19409315
000060 f2 74 05 bf 02 54 44 bd c8 ba ad 3e ae 5b 88 be
       -0.5213157 -0.04793168 0.33931565 -0.26632446
000070 49 7d ef be a7 dc 29 be 30 65 68 bf d0 70 01 bd
       -0.46775272 -0.16588078 -0.907794 -0.031601727
000080 70 66 55 bf 05 35 78 bd d8 be 3e 3f 5c 6f ad be
       -0.8335943 -0.06059744 0.74509954 -0.33874023
000090 06 17 49 3f 1f ff 98 bc c0 f7 a6 be 44 23 0b bd
       0.78550756 -0.018676339 -0.32610893 -0.03396918
0000a0 05 d2 b0 be c3 7e 01 be 70 76 f3 3c e0 93 83 be
       -0.34535232 -0.12646012 0.029719561 -0.25698757
0000b0 bb 9b 93 be 3a 03 ac 3e 4f 48 6c bf 41 3b 09 3e
       -0.2882975 0.33596212 -0.92297834 0.1340151
0000c0 e2 f6 9c bf c1 8d 2b 3e ea 45 3a bf 63 e5 57 3e
       -1.2262843 0.16753294 -0.7276293 0.21083598
0000d0 f2 0f 8f be 78 84 79 bd dc 99 05 bf 80 34 b2 bd
       -0.27941853 -0.060917348 -0.52187896 -0.0870142
0000e0 f9 02 d0 be 4c 1b b8 bc 71 0d f8 bd 07 37 01 3d
       -0.40627268 -0.022473954 -0.12111939 0.03154662
0000f0 1a da 4e be 6c 66 8a bd f1 65 29 be 13 68 53 be
       -0.20200387 -0.06757817 -0.16542794 -0.2064517
000100 e3 f7 93 3d bd 2b 50 be aa 0d bd b9 a4 89 a8 bd
       0.07225015 -0.20329185 -0.0003605907 -0.08229378
000110 26 fc 2d be aa 39 96 bd 96 5b db 3d 8a b8 71 be
       -0.16990718 -0.07335217 0.10710828 -0.23605552
000120 c4 a3 23 bd 2b d1 61 be 12 8f 2b 3e 3c 91 c9 ba
       -0.0399511 -0.22052447 0.16753796 -0.0015378366
000130 7f 79 12 3f 29 ed 85 be 32 b6 ee 3e e6 8b c8 be
       0.5721664 -0.261575 0.4662338 -0.39169234
000140 bd e7 b2 3e 07 9c 2b be 29 5a ab 3e 69 09 2b be
       0.34942427 -0.16758738 0.33467224 -0.16702808
000150 86 12 bb bd fc ca 1a 3e 68 5d 91 3d d7 77 29 bf
       -0.091343924 0.15116495 0.07097894 -0.66198486
000160 9a 3b 9a 3d de 87 43 be 0e f4 d9 3c 8a 31 5f be
       0.07530899 -0.19094798 0.026605632 -0.21796241
000170 72 e2 27 3d f2 bb 2c bd e0 cf 0f 3e db df 35 be
       0.04098744 -0.042171426 0.14044142 -0.17761175
000180 cb 0b cf 3c 19 5e c5 bb b4 25 09 3e bc 4d 48 bd
       0.025274178 -0.00602318 0.13393289 -0.04890226
000190 38 c2 66 3d cb a3 22 bd 3d 47 a9 3e 5e 60 ac 3e
       0.056337565 -0.039706986 0.33062163 0.33667272
0001a0 0e b1 84 bd d7 4e 0f 3d 55 e1 10 bf 6a 3d fd bc
       -0.06479083 0.034987297 -0.5659383 -0.030913074
0001b0 26 47 83 3c ad 60 0a 3e fd 66 b3 3d ae df 28 3f
       0.016025137 0.13513441 0.08759878 0.6596631
0001c0 73 76 4d bd b2 b3 b3 3c 9e ba cb 3d f8 b0 8b bd
       -0.05016179 0.021936271 0.09947704 -0.068208635
0001d0 37 2b 7b 3f 95 47 95 bc 6c c0 03 be b9 30 66 3f
       0.98112816 -0.01822261 -0.12866372 0.89918095
0001e0 ad 3c 14 be ba 5f 08 3d d5 1a 41 be 21 b7 96 3d
       -0.14476271 0.033294417 -0.18857892 0.07359148
0001f0 c2 44 09 3f 23 62 57 3e 2c 63 5d 3e 9a d5 e9 bd
       0.5362054 0.2103353 0.21619862 -0.114176944
000200 98 c1 1a 3e 2a a3 aa bd 3c b6 5e 3e 7c 6b 16 3e
       0.15112913 -0.08331902 0.21749204 0.1468944
000210 cc 14 90 3d e4 96 59 bc 69 f8 21 3d fe af 05 3e
       0.07035217 -0.013280604 0.039543543 0.13055417
000220 ca 74 4a 3d 97 cb ab 3e f8 84 d1 3e 88 61 ce 3d
       0.049427785 0.33553764 0.4092176 0.10077196
000230 ab 35 af 3e e0 fe 8a 3d 68 61 00 bd 63 d2 2f 3e
       0.34220633 0.06786895 -0.031342894 0.171701
000240 27 7e 91 bc 0a ce b5 3e 37 dc 98 3e ff 9e ed 3d
       -0.01776035 0.35508758 0.2985551 0.11602592
000250 34 17 22 be d5 c5 31 bb b1 a3 9a be df 1a e9 3d
       -0.15829164 -0.0027125974 -0.30203012 0.113820784
000260 a8 ee 71 3e cb 62 bb 3d 58 04 71 be 76 6e 74 bd
       0.23626196 0.09149703 -0.23536813 -0.059675656
000270 64 f4 a4 3e 05 40 29 be bb 07 54 3e 49 e3 26 3d
       0.32217705 -0.16528328 0.20706074 0.0407441
000280 fc 69 11 3d 72 5d da bc c4 41 0b be a1 e8 13 3e
       0.035501465 -0.026655886 -0.13599306 0.1444421
000290 21 db 93 3e df a7 a2 3d aa d7 2c 3e 3a 21 2c be
       0.2887812 0.07942175 0.16879144 -0.1680955
0002a0 2a 39 8b be a0 f7 87 3e 47 4b 67 3e 02 1a f0 be
       -0.2719205 0.2655611 0.2258731 -0.46894842
0002b0 38 0d 4d 3e fe 83 21 be 1c 10 a8 3d fb a8 e5 bd
       0.20024574 -0.15773007 0.082061976 -0.11213871
0002c0 c4 6a cc 3c 1a 71 59 bd d1 b7 28 3e df 4a df bd
       0.024953254 -0.053086378 0.1647637 -0.109029524
0002d0 00 48 52 3d 2b a5 81 bd 9a fa b8 3d 84 92 e5 bc
       0.051338196 -0.063303314 0.090321735 -0.028023966
0002e0 33 0b 44 3e 9f c2 33 bd 3d bf eb 3d f1 9b 5c be
       0.19144897 -0.043886777 0.11511085 -0.21543862
0002f0 4c c7 35 be 22 f5 46 bd 35 ff 58 bd 37 14 85 bd
       -0.17751807 -0.04857362 -0.05297776 -0.06497996
000300 25 28 33 3d ba 5a 42 bd 44 00 97 be f6 f2 06 3e
       0.043739457 -0.047449805 -0.2949239 0.1317862
000310 5f 2a c8 bd 21 d5 b4 bd 5c d8 3e 3d 3e e0 6c bd
       -0.09773707 -0.088297136 0.046593055 -0.05783104
000320 6d 9c d6 bd 8a e4 08 3f 14 a4 02 bf 50 ca 5f be
       -0.104790546 0.5347372 -0.51031613 -0.2185452
000330 f0 4c 0b be 92 c7 0c bd e2 19 fe ba b5 3f 05 be
       -0.13603568 -0.034370013 -0.0019386376 -0.13012584
000340 ec 70 19 3e 5e 82 9f 3f b8 8a 3d bd 70 1d c6 bd
       0.14984483 1.246166 -0.04627487 -0.096735835
000350 95 eb 0e be 57 15 1a 3e 32 2b 01 bf 11 9a 7f bd
       -0.13957055 0.15047203 -0.50456536 -0.06240279
000360 10 91 3c bf 6c 93 1f be 3d 2e 10 bf 7c 66 de 3d
       -0.7365885 -0.1558358 -0.56320554 0.10859391
000370 31 3a b3 bc fb d3 97 be 8f 26 a7 be cd 54 da bd
       -0.021878334 -0.29653916 -0.32646605 -0.10660706
000380 16 d4 c4 bd 29 19 88 bd 4f 15 0b be fb a9 a1 3d
       -0.09610765 -0.06645424 -0.13582347 0.07893749
000390 2f 40 65 3e d5 16 cd be 80 99 84 3b f9 8d 97 bd
       0.22387765 -0.40056482 0.004046619 -0.07400126
0003a0 ae 69 06 bd 6b d0 46 bb b6 e1 32 3e e5 44 3b bd
       -0.032815628 -0.003033663 0.17468914 -0.04572
0003b0 cf 4d d7 3a b3 76 d9 be eb ed 04 3e 55 e3 4e be
       0.0016426387 -0.42473373 0.12981384 -0.20203908
0003c0 d8 cf 38 3e 01 ce 30 be cc 8a 17 3f f9 9a e6 bd
       0.18048036 -0.17266084 0.5919616 -0.112600274
0003d0 60 7e 87 3d 33 eb ac 3d d7 9b ad bc 7c c6 08 3e
       0.06615901 0.08443298 -0.021192474 0.13356966
0003e0 79 cd 27 be c4 9b 84 3e 42 5a d6 3e 7c c5 24 3e
       -0.16386975 0.2590009 0.41865736 0.1609096
0003f0 15 c1 8b be e8 77 18 3d 9e 1e 1e 3f 1d 0c 14 3b
       -0.27295747 0.037223727 0.6176547 0.0022590228
