src/computer_vision/hand_pose_detection/model/keypoint_classifier/keypoint_classifier_v1.tflite (tflite, 6512 bytes, 6 tensors)

arith.constant f4 [3, 10]
00000000: 678a e53e 737c c43e 989a 333e 05ad 89bc
00000010: 5130 173e c36f 283e 5cbf 3e3e 37cc 28bf
00000020: 946d d4be 5029 b23e 34c3 f1be 676b 92be
00000030: 8269 90bc 5191 a1be b3a2 68be 1917 11bf
00000040: f334 ccbe db01 193e 6e84 583f 8ca1 383e
00000050: 6383 123f 47e5 e9be a720 2d3f e476 1ebd
00000060: 370e 083f f46b d13e d544 153f 73c3 153f
00000070: fe99 923c 28e7 51bf
0.44832155 0.38376197 0.17539442 -0.016806135 0.14764525 0.16448884 0.18627685 -0.6593661
-0.4148985 0.34797144 -0.4721924 -0.28597566 -0.017628435 -0.3155618 -0.22718315 -0.5667587
-0.39884147 0.14942114 0.8457707 0.18030375 0.5723173 -0.45682737 0.6762795 -0.0386876
0.5314669 0.40902674 0.58308154 0.58501357 0.017895695 -0.8199334

arith.constant1 f4 [10, 20]
00000000: 4a73 5b3e c874 d5bb 246d d8bd 5622 14bf
00000010: 13ad 01bc 0eac a03d 32f8 cf3e dadf 93be
00000020: 219c 9cbd f6c9 763e 6cc3 9abe 6b68 103d
00000030: 1f9d 303e a6b1 c03e 4a07 b53e 0102 4f3e
00000040: 0d13 8f3d cce0 52bd f203 f3bd 83ee c23e
00000050: a8ec da3e 4e9c cfbe 8d4c 28bf 5119 74bd
00000060: 69b9 5b3e 894a 04be 789e e53e 91f8 cabd
00000070: f5c6 b3be aff3 313e 4490 68bd a0e6 2a3e
00000080: 050d cb3d b7b0 87bc a507 a93c 1629 e63e
00000090: ab31 033e ab13 013c 6b1c d73e 61fa 983e
000000a0: 520d 9bbe a618 a7be 3724 3fbd 21d1 fbbe
000000b0: 82a9 b2be 9e20 bebe 4339 8ebe 6e87 be3e
000000c0: 5612 193e a2a6 473e 0ecd c53b e4fd b7be
000000d0: d521 fbbd 17d3 4cbe df52 b73c dbed c33e
000000e0: c884 323e 4ef1 7cbe 98dd f23e 0ba3 3a3e
000000f0: a5b4 b9be 373a a53e 7298 eabe 6470 7fbe
00000100: cd5d 92be 5195 0abe 90a1 9bbe 476a 91be
00000110: 4100 8b3e 8b11 4dbd 593c d1be 75b3 52be
00000120: e47c 36be 4207 73be 2e1d debc f9a5 283e
00000130: 911f 6abe ced9 a53e 437f 20be 6511 88be
00000140: 7e28 e13d 5666 febe 9e9c a2be 2d93 cebe
00000150: 323f 10bd 023d 80be dee1 a639 8554 183f
00000160: 9b3d d53e 9a2f 733d 2edc 87be bb49 09be
00000170: 2d3f 43be 22b2 a93e 84b7 e93e 8a83 68be
00000180: 228c 58be e6ef 0c3d cb12 c43e 5591 7d3e
00000190: 5622 6e3e 15d2 2fbc 17a9 8b3d 2a7b f63d
000001a0: 4bef b0bc 83c6 acbe 85ba bc3d c5bf ddbe
000001b0: a30e 413d b5cf 173e ab50 e4be fd3e febc
000001c0: 24a2 923d 8dc3 9f3e 003a 93be f9aa 1dbd
000001d0: 64c0 d6bc 9a28 aabe 4d69 353e 7051 00bf
000001e0: 8092 85be 965f b9bd 8d56 d4bd 751d aabe
000001f0: 602e f8bd 85ae bbbe 36b9 0b3f d054 993e
00000200: 616c c33e 08d5 ed3e d7a5 04bf 6f44 ea3d
00000210: 5e88 ff3d 3690 e43d 6a6a c63e 70e1 933e
00000220: 13b6 923d cfc8 67be cc3f 3a3e 1c93 6dbe
00000230: ef05 0bbf c20a 3abe b17f 15bf a709 4abe
00000240: ecef d63d 898e 2abc c6f6 a33e 2b89 d8bd
00000250: b82c 913e da5d 7d3d 60b2 42be d1e4 09bf
00000260: c6a0 ebbe c095 9b3d a7e2 b83e cb9a e53e
00000270: e2ec 32bf 9507 24bf 7ce9 753e 664a c0bd
00000280: 5a3b bb3e c701 c53e f2ea 193f 0ba5 ed3e
00000290: fd21 2d3e 7d97 303f 40b7 dcbe cf6a b2bd
000002a0: 49ad c93d 6846 0dbe a24f e13e 749e 6f3e
000002b0: cbe8 bc3e 0789 1cbf 2e58 a7be cb86 3ebd
000002c0: c8de 8c3e 0c5f febd 3723 133e 25fd 35bf
000002d0: ea00 403f 26c1 a43e 48d1 723e b9e7 603d
000002e0: 52f4 303f c519 6bbe de53 04be 8e7f 813e
000002f0: 0ea1 72be 11ff 0dbe 9344 99bc 554e 063f
00000300: 318e 083f a721 b6bd 117c 8d3e 464b 383e
00000310: a414 033f d340 3c3f 498c 473e c551 ee3e
0.21430698 -0.0065141656 -0.10567692 -0.5786489 -0.007914799 0.07845317 0.40619045 -0.28881723
-0.07646967 0.2410048 -0.3022722 0.03525583 0.17247437 0.37635535 0.35357124 0.20215608
0.069860555 -0.051483914 -0.11865987 0.38072595 0.4275868 -0.4054894 -0.6574181 -0.059594456
0.21457447 -0.12919058 0.44847465 -0.099106915 -0.3511273 0.17378114 -0.056778207 0.16689539
0.09914593 -0.016563756 0.020633528 0.4495322 0.12811916 0.007878224 0.4201387 0.29878524
-0.302836 -0.32635993 -0.046665397 -0.4918299 -0.3489495 -0.3713426 -0.27778062 0.372127
0.14948401 0.19497159 0.0060364073 -0.3593589 -0.12262312 -0.200024 0.022378383 0.38267407
0.17433465 -0.24701425 0.47434688 0.18226258 -0.36270633 0.32270977 -0.45819432 -0.24945217
-0.2858719 -0.13533522 -0.303967 -0.28401396 0.2714863 -0.05006556 -0.40866354 -0.2057627
-0.1782108 -0.23733237 -0.027113523 0.16469564 -0.22863604 0.32392734 -0.15673546 -0.2657577
0.109940514 -0.4968745 -0.31760114 -0.4034666 -0.035216518 -0.25046545 0.00031830271 0.59503967
0.41648564 0.05937157 -0.2653517 -0.13407032 -0.19067068 0.33143717 0.45647824 -0.22706428
-0.21147206 0.034408472 0.38295588 0.24762471 0.23255286 -0.01073124 0.06819361 0.120352104
-0.021598479 -0.33745202 0.09215263 -0.4331037 0.0471331 0.14825328 -0.44592795 -0.031035895
0.07159832 0.3120388 -0.28755188 -0.03849313 -0.026214786 -0.33234102 0.1771595 -0.50124264
-0.26088333 -0.09051435 -0.10368071 -0.332256 -0.1211822 -0.36656585 0.54579484 0.2994752
0.38168624 0.46451592 -0.5181555 0.11438834 0.12477182 0.111603186 0.38753062 0.28882933
0.07163634 -0.22635196 0.18188399 -0.23200649 -0.5430593 -0.18168166 -0.58397967 -0.19730245
0.1049498 -0.01040996 0.3202421 -0.10573038 0.2835443 0.061857082 -0.19013357 -0.5386477
-0.46021098 0.07596922 0.36110422 0.4484466 -0.69892704 -0.6407407 0.24014848 -0.093891904
0.3656872 0.38477919 0.60124123 0.4641498 0.16907497 0.6898115 -0.4310856 -0.08711778
0.09847505 -0.13796389 0.44006068 0.23400289 0.36896357 -0.6114659 -0.32684463 -0.046515267
0.2751372 -0.124204725 0.14368902 -0.7108939 0.75001395 0.3217861 0.23712647 0.054908488
0.69122803 -0.22959049 -0.12922618 0.2529263 -0.2369425 -0.13866831 -0.018709457 0.52463275
0.53341967 -0.088931374 0.27633718 0.17997465 0.5120337 0.73536414 0.19487108 0.4654676

arith.constant2 f4 [3]
00000000: 3b93 febd 4eca 3f3e d568 04be
-0.12430426 0.18729517 -0.12930615

sequential_1/dense_1_2/BiasAdd/ReadVariableOp f4 [10]
00000000: 7681 7dbd cd1f 95bc 11ef cfbd 88e5 0ebe
00000010: 2501 a3bc bea8 8dbd f03d 9fbc c3f1 4d3e
00000020: 57dd 083e 29e1 3f3e
-0.06189104 -0.01820364 -0.1015302 -0.13954747 -0.019898007 -0.06916951 -0.019438714 0.20111756
0.13365684 0.18738236

sequential_1/dense_1/BiasAdd/ReadVariableOp f4 [20]
00000000: c350 193d 4bad dfbd 61e3 d9bd 27fd 5b3c
00000010: 5571 a13d a91b aebd f22d 87be 5d04 88bd
00000020: 19b1 81be c2b3 01be 0ea2 41bd 80cc 2c3e
00000030: 060d 113d 55aa 65be f5d5 60be 0548 42be
00000040: b6f8 7b3c 2d11 083e 08de 80be 8c44 873d
0.037430536 -0.10921725 -0.10639072 0.013427055 0.078829445 -0.085013695 -0.2640224 -0.06641457
-0.25330427 -0.12666228 -0.047273688 0.16874886 0.03541281 -0.22428258 -0.21956618 -0.18972786
0.0153791215 0.13287802 -0.25169396 0.06604871

sequential_1/dense_1/MatMul f4 [20, 42]
00000000: bcd6 8e3e 6ad1 9dbd 8587 c3be 2340 f33d
00000010: 047e 81be 4c7c 11bd d638 cdbe e253 173d
00000020: 2ba2 95be dbab 163d 5160 a6be 4749 e03d
00000030: 0923 28bf 3e1a 47bd fc2d 0cbf 7ffd c83d
00000040: 8127 fbbc 9081 56bd ad8a 22bf 9c9f 72bd
00000050: 5198 05bf 2e28 97bc 6a84 afbd 3a66 f73d
00000060: 5c82 c2bd b29c 013e 4e14 bbbe b85e aabe
00000070: 9160 343d 6528 6fbe d069 9aba 17f9 3e3c
00000080: d588 943d 68a7 f2ba baea 53bd 37db fcbe
00000090: 2226 733d 181e d9bd 020a 5e3d 5e67 33be
000000a0: eaf8 1e3e ab72 193e 1c10 b13d 08e4 693e
000000b0: 9731 8abe 9e24 38be 108c 12be 808a aabd
000000c0: 93a3 cdbc c920 c4bc 0f1e b3be e3a1 40be
000000d0: ff8c 7e3d 53db 07bd 7253 b1bd a525 f1bc
000000e0: 45c3 38be 193e ef3d 9a77 e9be e4e1 fd3b
000000f0: ef32 793e f98c 843e 9039 66bd 8748 173e
00000100: 631c b0be e1c0 4dbe d466 13bf a127 6b3d
00000110: 72d6 8a3e 6a04 f93d d8b3 183d e426 4c3e
00000120: 6b3b d0be eb75 973d ee4f f1be 52ce 163e
00000130: cf39 3f3f 0c11 d13d 8e4d c23e 4f25 4a3e
00000140: 5059 8bbe 390b 18be c328 d0be ade8 8d3c
00000150: 7443 553e acb8 503e 3984 efbe 2f1c f7be
00000160: 2d29 b9be 8dfd 803d 2aa2 8fbe 9413 ec3c
00000170: 916b 81be 7e40 883d 0f1f 033d 6d19 b6bc
00000180: 4dc0 563d 1581 a9bc ef01 8dbe abbc 81bd
00000190: 2f62 02bf a193 863d a9c1 953e 199e 5fbd
000001a0: 963c 203e ea1b 9dbd 240f e9bd 6be2 0a3e
000001b0: 760d 1fbe ca81 e63c 0ffe f53e a330 0e3f
000001c0: 6d17 413d f8c3 343e b77d adbe dc2c fcbd
000001d0: 39bf 13bf 0061 853d 6017 283f edb2 863e
000001e0: dfa9 923e f377 79bd 4d54 6dbe edf3 42bd
000001f0: b8a5 e0be db15 a7bd 4b18 07be ea07 0fbe
00000200: 342c e4bc 7a0c 5cbd 987d 683d 720c 41be
00000210: c913 c13d 1f7a 923e 9470 8b3e c141 85be
00000220: 49cf 0abe b2a3 36be 7c4d 6dbe 0ff1 3e3e
00000230: c864 c4bd 7cc1 00be aeb4 933e 5420 41be
00000240: 76bb 7fbc 88c0 073e cdc6 4a3e 3891 cfbd
00000250: a936 9e3d e704 1dbe ca37 0c3d d959 67be
00000260: 675d 48be 3407 203d 58a7 8fbc 536a 59bd
00000270: 80df 11be 87ee 01bf ee2e 7c3e 9745 45be
00000280: 4c93 463e 722e 63be 6126 0abe 6ad7 a0be
00000290: 2a1e b33d 5b3c 033d 4178 75bd 3800 01bf
000002a0: 708c 6f3d 1003 103d 4bbb b3bd 15a4 41be
000002b0: b690 d7be 6cbd 02bd 0bc9 a0be 9c9b 093e
000002c0: 563f bbbe f477 c63d f9f9 5abd a279 fbbd
000002d0: c574 63be 0c67 373e 1679 38be 6738 a0bd
000002e0: 1ccd 57be 1bef 7b3d c657 223d da1f 883c
000002f0: c4eb 2bbe f5f3 413d 9979 a6be ff0f 723e
00000300: b62d 323d 576c ba3d 1868 88be 24a7 c7be
00000310: 0f5b 5ebe cd73 183e f9e4 4abe 0c00 683d
00000320: 3970 70bc 8725 32bd 7f48 f23a 372e a4be
00000330: 4ba8 c1be 4065 3dbe 02ed cabd feb3 8b3e
00000340: 4669 cb3d 7517 473e f57c 76be c2dc 3cbe
00000350: ec83 cabe 9a1f 5cbd 103c b6bc 26e0 2b3d
00000360: 3f8d b4bb 32cd eb3d 626a f2be 8765 41be
00000370: 7622 2c3d 33df 5bbe f513 d33d 5fdc 36be
00000380: 9eba eabe 0580 773d 1d52 8cbd f670 bd3c
00000390: 6f01 073c cc59 fdbd c20f d8bd b153 243d
000003a0: 69d9 9fbe 7ea0 c13d b6a8 05be ee1d 003d
000003b0: b2a2 a73e d4fc ce3e 2b71 e93d 50d6 acbd
000003c0: 39e4 34be fc48 aebb 8491 84be 7b9b 0abe
000003d0: 8d19 053f 1c1f 1b3f ad7a 453e 1427 683e
000003e0: 3460 aebd e956 1e3e fb9f 03bf 51be e0bc
000003f0: 9c88 6e3e 7033 60bd bc50 f33e 129d 3d3e
0.27898204 -0.07705958 -0.3818933 0.118774675 -0.25291455 -0.03551893 -0.40082425 0.03694523
-0.29225287 0.036784988 -0.3249536 0.109514765 -0.6567846 -0.04860901 -0.54757667 0.098139755
-0.030658485 -0.052369654 -0.6349285 -0.059234247 -0.5218554 -0.018451776 -0.08570178 0.12080045
-0.0949752 0.12657431 -0.3653893 -0.3327539 0.044037405 -0.23355253 -0.0011780802 0.011656067
0.07252661 -0.0018513026 -0.051737525 -0.49385998 0.05936254 -0.10601443 0.054208763 -0.175199
0.1552464 0.14985149 0.08645651 0.22840893 -0.2699096 -0.17982718 -0.14311242 -0.08327198
-0.025102412 -0.023941414 -0.3498387 -0.18811755 0.062146183 -0.03316815 -0.08658494 -0.029436896
-0.1804324 0.11681766 -0.4559906 0.0077478755 0.24335836 0.25888804 -0.05620724 0.1477376
-0.34396657 -0.20093109 -0.5757878 0.05741084 0.27116734 0.12159045 0.037280887 0.1993671
-0.40670332 0.07395538 -0.47131294 0.14727142 0.74697584 0.102083296 0.37949795 0.19740795
-0.27216578 -0.14848031 -0.406561 0.017322863 0.20826513 0.20382947 -0.46780565 -0.4826369
-0.36164227 0.06298361 -0.2805341 0.02881793 -0.2527738 0.06652926 0.03201204 -0.02222892
0.052429486 -0.020691434 -0.27540538 -0.06334814 -0.50931066 0.06571127 0.29249313 -0.054594133
0.15648112 -0.0767134 -0.11379841 0.13562934 -0.15532479 0.02813806 0.48045394 0.55542964
0.04714148 0.17652881 -0.33884975 -0.12313244 -0.5771366 0.06512642 0.6566067 0.26308385
0.28645226 -0.060905408 -0.2317669 -0.047595907 -0.43876433 -0.081584655 -0.13192861 -0.13967863
-0.027853109 -0.053722836 0.0567604 -0.18852404 0.09427602 0.28608796 0.27234328 -0.2602673
-0.13555636 -0.17835882 -0.23174089 0.18646644 -0.09589535 -0.12573808 0.28848785 -0.18859988
-0.015608659 0.13257039 0.19802399 -0.1013512 0.07725269 -0.15333901 0.034232892 -0.22592868
-0.1956688 0.03906937 -0.01753585 -0.053079914 -0.14245415 -0.5075459 0.24627277 -0.19264828
0.19392127 -0.22185686 -0.13491203 -0.31414348 0.08745988 0.03203998 -0.059929136 -0.5039096
0.05848354 0.03515917 -0.08775958 -0.18910249 -0.42102593 -0.031918928 -0.31403384 0.13438267
-0.3657176 0.09690848 -0.05346105 -0.12279059 -0.22212513 0.17910403 -0.1801494 -0.07823258
-0.21074337 0.061507326 0.03963449 0.01661675 -0.16789156 0.047351796 -0.32514647 0.23638915
0.043500625 0.091026954 -0.26641917 -0.38994706 -0.21714424 0.14887924 -0.19813909 0.05664067
-0.0146751935 -0.04349282 0.001848474 -0.3206651 -0.3782371 -0.18495655 -0.09908487 0.2728576
0.09932189 0.19442542 -0.24071105 -0.18443587 -0.39553773 -0.053741075 -0.022245437 0.04196181
-0.005510002 0.11513747 -0.4734679 -0.18886386 0.042025052 -0.21471862 0.10306541 -0.17857502
-0.45845503 0.060424823 -0.06851599 0.023125153 0.008240088 -0.12370643 -0.105498806 0.040118877
-0.31220558 0.094544396 -0.1305264 0.031278543 0.32741314 0.40427268 0.11398538 -0.08439314
-0.17665185 -0.005318759 -0.2589227 -0.13535874 0.5199211 0.60594344 0.19285078 0.22671157
-0.08514443 0.15462841 -0.51415986 -0.0274345 0.232943 -0.054736555 0.47522533 0.18516949
