src/computer_vision/hand_pose_detection/model/keypoint_classifier/keypoint_classifier_v2.tflite (tflite, 11312 bytes, 8 tensors)

arith.constant f4 [64]
000000 a5 1a 6c 3f db ef c3 3f 22 65 23 c0 aa 73 2a be
       0.92228156 1.5307573 -2.5530477 -0.16645685
000010 69 59 04 c0 28 f8 b5 3f 9c d4 f0 bf 2d 97 76 3f
       -2.0679572 1.4216356 -1.8814883 0.96324426
000020 b8 eb 3b c0 95 07 bf be fc a5 3c 3f 80 3c 75 3f
       -2.9362621 -0.37310472 0.7369077 0.9579544
000030 5f 3e f2 bf 17 c0 30 40 6e c2 5f c0 f9 d0 cd bf
       -1.8925284 2.7617242 -3.496242 -1.6079398
000040 d4 8a 3e 3f cb ed 71 be ae cc d9 3e 40 f9 0f c0
       0.74430585 -0.23625867 0.4253897 -2.249588
000050 4c c0 21 40 4e b5 d0 3e c8 42 e2 bf 78 3c 78 be
       2.5273619 0.40763324 -1.767663 -0.24241817
000060 ff a1 1f 3f 14 5c a6 be 82 5d 40 bf 87 ab 1a 3f
       0.6235656 -0.32492125 -0.7514268 0.6041798
000070 2a 39 ea bf a2 85 0c c0 f6 b6 10 3d 9c c2 e7 bf
       -1.8298695 -2.1956563 0.035330735 -1.8106265
000080 f3 ba 2c be 51 47 87 be f2 c6 ba bf b9 88 1c 3e
       -0.1686819 -0.26421598 -1.4591963 0.1528653
000090 a1 3f b9 bf 66 e3 18 c0 f2 f9 de bf 55 54 1d 3f
       -1.4472543 -2.3888793 -1.7420027 0.61456805
0000a0 69 9e 5b 3f b2 5f 22 bf 22 02 f4 bf 57 fe 9d 3f
       0.8578859 -0.6342727 -1.9063151 1.2343243
0000b0 07 ac e6 3f e9 bb 23 c0 7f c1 9e 3f 70 1e 44 c0
       1.8021249 -2.5583441 1.24028 -3.0643578
0000c0 08 26 b0 3f 86 f5 18 3f 5f ec a1 be 53 36 8e bf
       1.3761606 0.5974964 -0.3162565 -1.1110328
0000d0 f0 5c 32 c0 54 05 7c bf 7a 97 9d 3f 29 42 69 bf
       -2.7869225 -0.9844563 1.2311852 -0.9111658
0000e0 2f 41 8f bd b4 88 4c c0 09 5c c3 bf 3e 79 45 bf
       -0.06994855 -3.1958437 -1.5262462 -0.77138126
0000f0 5a c7 11 c0 27 0e 57 c0 9e e4 bf be 7a a9 06 3f
       -2.2777925 -3.3602388 -0.3747911 0.5260235

arith.constant1 f4 [32]
000000 27 54 7c bd ab 03 84 3d 3a ab 63 bb 78 37 95 3b
       -0.06160369 0.06446012 -0.003473951 0.0045537315
000010 c4 ae 40 3c 9b c7 6e 3d c0 53 c6 3c 1f b8 38 3d
       0.011760417 0.058295827 0.024209857 0.045097467
000020 bc 36 fe 3c d5 a5 87 3d 08 73 87 3d 9a 70 c5 bc
       0.031031959 0.06623427 0.06613737 -0.024101544
000030 4d fe 2a 3d 94 58 a2 bc df 2b b9 3c 0d 4e 9d 3c
       0.041746426 -0.019817628 0.022603927 0.019202257
000040 41 7b 0c bd 65 34 79 bc 4d d8 15 bd c4 87 1a 3d
       -0.03429723 -0.015210246 -0.036583234 0.037727132
000050 f8 0e 9c 3d 8c 68 fa bc b8 ca ef 3c cf 7e d6 3c
       0.076200426 -0.03056743 0.029271469 0.026183514
000060 3b 75 82 3b 22 37 80 3c 87 23 38 bc de 7f 9c 3b
       0.00398126 0.01565129 -0.011238939 0.004775985
000070 f8 24 89 3d 1a dc 06 3d b9 f5 88 bd 8a 5e 91 3d
       0.06696504 0.03292475 -0.06687493 0.0709811

arith.constant2 f4 [16]
000000 c2 17 b9 3d 4b c0 1c 3c 57 2d 43 3d 52 e3 06 3d
       0.090377346 0.009567331 0.04765066 0.032931633
000010 c3 53 95 3d ff 6c 37 bd d8 e0 a7 3d 6e a6 79 3c
       0.07291367 -0.04478168 0.081971824 0.015237434
000020 8e ce 8f 3d f8 11 b6 3d 65 f0 07 3b 8e f9 ae 3d
       0.07021819 0.08890146 0.0020742652 0.085436925
000030 e6 14 b5 3d 31 db 44 bd 6d 82 47 3d 26 ff 82 bd
       0.08841877 -0.0480606 0.048708368 -0.06396322

arith.constant3 f4 [2]
000000 3c 50 5e 3d 3f 50 5e bd
       0.054275736 -0.054275747

arith.constant4 f4 [2, 16]
000000 b3 fa a7 be d1 c5 59 be 21 15 f2 bd 12 c7 c2 be
       -0.32808456 -0.21266867 -0.11820436 -0.38042504
000010 dd 59 c6 be 88 11 f6 be 2b 7e 2a 3f cd 46 b7 be
       -0.38740435 -0.4806025 0.6659877 -0.35796204
000020 90 43 0c bf 4d 63 cb 3d a6 fb 09 bd 03 74 f0 be
       -0.5479059 0.099310495 -0.033687256 -0.4696351
000030 e0 e5 ad 3e 14 43 89 3d bb 1a f9 3e bc ae 0d 3e
       0.33964443 0.06702247 0.48653206 0.13836187
000040 76 1a 8b bd 5e 17 31 be a7 bd ef 3e 1d 3a d0 3d
       -0.067921564 -0.1729407 0.4682438 0.10167334
000050 c0 41 28 3f 9d 05 0c bf 06 03 a3 3e 1a cd 36 3e
       0.65725327 -0.54696065 0.31838244 0.17851678
000060 e1 ac a8 3e 2d a2 77 be 68 43 da 3e b0 b7 fa bd
       0.32944396 -0.24182959 0.42629552 -0.12242067
000070 c6 5d ed be 27 e9 41 3e 46 b7 37 3e f7 d5 81 3e
       -0.46360606 0.18936597 0.17941007 0.25358555

arith.constant5 f4 [16, 32]
000000 46 6a a1 be e5 4e 50 3e 0b 82 01 3e 51 93 1d 3e
       -0.31526393 0.20342596 0.12647264 0.15388228
000010 95 04 bd 3d a3 be 18 3e 54 fc a3 3d 64 ee ce bd
       0.092293896 0.14916472 0.08007112 -0.10104063
000020 1a 24 0b 3e af b3 8d bd 6c 47 0a bd cc 41 c4 3d
       0.1358799 -0.069190376 -0.03375952 0.09582862
000030 b1 67 c3 3e 42 34 8f 3e be fe 59 3e 8a 4a 2a 3e
       0.38165048 0.27969557 0.21288583 0.16629997
000040 68 62 47 3d a4 2b 7c 3e a2 5b 1b 3e 29 00 8f be
       0.048677832 0.24626023 0.15171674 -0.2792981
000050 82 9d 78 3e 9f 52 08 3e 39 9e 8b be 44 87 a8 be
       0.24278834 0.13312767 -0.27269152 -0.329157
000060 90 f3 9b be b5 fd 8b be 13 0a c6 3d 7b 1a 95 be
       -0.3045926 -0.27342 0.0966989 -0.29121765
000070 9a 68 a4 3e e1 5c 9c 3e fb 99 97 be 46 3b 96 3e
       0.32111055 0.3053961 -0.29609665 0.29342097
000080 f2 16 49 be 1a b5 f9 bd ce 41 1c 3e ea 8f 40 be
       -0.19637659 -0.121927455 0.15259477 -0.18804899
000090 50 de 9e 3d cd 10 9d 3e 59 ba 78 be 78 75 33 be
       0.077572465 0.3067688 -0.24289836 -0.1752528
0000a0 c9 e7 89 be 56 19 ab be c0 75 99 bd 83 1a 8e be
       -0.2693465 -0.33417767 -0.07493162 -0.27754602
0000b0 59 7d cf 3d b9 5c 2d be 69 5f b2 3d 09 82 4b bd
       0.1013133 -0.16929902 0.08709604 -0.049684558
0000c0 83 c7 19 3e f2 6e 92 3e 72 6b b4 be fa aa 15 be
       0.15017514 0.2860027 -0.35238224 -0.14616004
0000d0 28 d8 cd 3d 2e b5 76 3e 65 e1 53 be 86 93 b0 bd
       0.10050994 0.24092552 -0.2069145 -0.08621888
0000e0 77 39 05 be 81 48 8d bd 9f e5 a5 be 5b f6 b8 be
       -0.13010202 -0.06898595 -0.3240175 -0.36125454
0000f0 06 60 bd bd d3 98 99 3e fd 8f 06 be bf 90 9c bd
       -0.09246831 0.29999408 -0.13140865 -0.076447956
000100 3d c4 17 3e a0 0b 21 3e 17 db a2 be e4 b9 9d be
       0.14820953 0.15727091 -0.31807777 -0.30805886
000110 18 a6 82 3e 6d f8 c6 3e 38 4b 44 be 75 c1 85 bd
       0.25517344 0.3886141 -0.19169319 -0.065310396
000120 ff 43 b1 3d 97 26 71 bd a6 ca e9 3d f1 51 b3 be
       0.08655547 -0.058874693 0.11415605 -0.35023454
000130 78 70 77 be a1 c5 68 3e 75 27 3b 3e c8 2c 89 be
       -0.24163997 0.2273164 0.1827677 -0.26791978
000140 3b f1 b8 3c 11 cf ac 3c 24 77 0b be 08 5c bc be
       0.022575965 0.02109483 -0.13619667 -0.36788964
000150 a8 76 1d be 6e bf 49 bb 07 3b 29 be 03 69 ab be
       -0.15377295 -0.0030784267 -0.16526423 -0.33478555
000160 d1 fc 34 3e 2f ba 65 be 1c 81 25 3e 07 b7 66 be
       0.17674567 -0.22434305 0.16162533 -0.22530757
000170 29 48 a9 be 8c d7 7e be ed 4e b5 3d e0 56 af bc
       -0.33062866 -0.24886912 0.088529445 -0.02140373
000180 ba e6 a5 be 33 33 d0 3b 96 b0 2d be b4 5c 20 3e
       -0.32402593 0.0063537597 -0.16961893 0.15660363
000190 df fb b3 be 8b fc 84 be 26 3f 8a 3e 82 86 b1 be
       -0.351531 -0.25973925 0.27001303 -0.34672934
0001a0 8a ea 81 be 63 fd 1c be 2d 67 1c bc 30 af 22 be
       -0.25374252 -0.15331034 -0.009546083 -0.15887141
0001b0 f5 34 bf 3e 5f cb 26 3c ba 3d 54 3e 11 24 5e be
       0.3734509 0.010180323 0.20726672 -0.21693446
0001c0 ae 81 33 3e e2 f5 38 3e 22 7e 39 be cb fe f6 3b
       0.17529938 0.18062547 -0.18114522 0.007537698
0001d0 eb 45 97 3e be ae ab bd 3e 96 57 3d 29 e0 fa bd
       0.2954553 -0.08382939 0.052633516 -0.122497864
0001e0 41 82 64 bb de a4 5b bd 7e c6 48 bd 4f eb 3a be
       -0.0034867676 -0.053624026 -0.049017422 -0.18253826
0001f0 87 75 6b 3e 0c 26 13 3e 9f 28 51 3e 99 d9 a4 3e
       0.22994052 0.14369982 0.20425652 0.32197264
000200 5b 45 5b bb d9 28 85 be 24 2e ae 3e 85 0b 53 be
       -0.0033458087 -0.26007727 0.34019578 -0.20609863
000210 63 6a 8d be 1f 43 3b 3e 01 ca a3 3e 78 e2 a6 bd
       -0.2762023 0.18287323 0.31990054 -0.08148664
000220 a3 e9 6d 3d 88 2b cd 3c 29 de 9c 3e 32 19 7d be
       0.05808414 0.025045171 0.30638245 -0.24716642
000230 3d 80 c2 3e 11 b8 99 3e 74 81 9e 3e 88 4b 31 3e
       0.37988463 0.30023244 0.3095814 0.17313969
000240 2e 96 15 be 20 2a 73 bd 72 00 b1 be ad e3 8b be
       -0.1460807 -0.059366345 -0.34570652 -0.2732214
000250 d3 62 69 3e 14 45 f9 bc 2a 20 51 be 51 4d 87 bd
       0.22791605 -0.030428447 -0.20422426 -0.06606544
000260 c1 90 d7 be 9f 40 8d be 28 5e ab 3e 94 ed 38 be
       -0.42102626 -0.27588364 0.33470273 -0.18059379
000270 a9 f0 a2 3e 0d fa bb 3d 4d c8 82 3d 06 05 5a 3e
       0.31824234 0.09178553 0.063858606 0.21290979
000280 7a e8 7e be 32 3f a4 bc 8c 16 ac 3e d3 e1 9e 3c
       -0.2489337 -0.020049665 0.33610952 0.01939479
000290 8b 2c b1 be 06 48 aa be 63 f6 61 be c4 aa 02 be
       -0.34604296 -0.33258075 -0.22066645 -0.12760454
0002a0 40 48 72 3c ff eb 39 be 3b ea 73 3e 77 51 39 3c
       0.014787734 -0.18156432 0.2381982 0.011310927
0002b0 45 b6 81 be 82 e3 ac 3d 14 49 17 be 71 37 07 3d
       -0.25334373 0.08441831 -0.14773971 0.033011857
0002c0 30 76 75 bd cd c2 72 be ea 0e a9 be 9d 90 b3 3e
       -0.059927166 -0.23707123 -0.3301919 0.3507127
0002d0 b8 df 1e be 2a 3b 7e 3e cb 3d 92 3e 79 10 23 3e
       -0.1551503 0.24827257 0.2856277 0.15924253
0002e0 db 66 b8 3e c2 37 77 be 35 6c 90 3a 96 33 94 be
       0.36015972 -0.24142364 0.0011018576 -0.28945607
0002f0 db d2 d7 bd a7 c8 a7 be 93 15 b2 3d d2 97 62 be
       -0.10538264 -0.32770273 0.08695521 -0.22128227
000300 b2 af 68 be 6f 83 2c bd 04 05 0b 3e a3 7c 8e 3e
       -0.22723272 -0.042117532 0.13576132 0.27829465
000310 fc fc a9 3d 85 50 d5 bd 50 f4 05 be 4a 7e 97 3e
       0.08300206 -0.104157485 -0.13081479 0.29588538
000320 74 24 b0 3d d5 c0 a8 bd 2b 51 5f be 7a a3 48 be
       0.08600703 -0.08239905 -0.21808307 -0.19593611
000330 ec f7 a8 bc f9 e9 8f 3e 0f ec f5 3d 43 0e 9c bb
       -0.02062603 0.28108194 0.12007915 -0.0047624423
000340 70 20 1f be c8 87 09 be 17 3d 59 3e ec 6e af 3e
       -0.15539718 -0.13430703 0.2121471 0.34264314
000350 45 04 37 3d e5 d1 b4 bd d8 2d 05 3f 6f e9 ea 3e
       0.044681806 -0.08829097 0.52023077 0.4588122
000360 63 d5 8f bd 77 00 ea 3e 24 90 8c be 51 33 a1 3d
       -0.07023122 0.4570348 -0.2745372 0.07871116
000370 0a 12 f3 3d e7 5a 64 3d 6d ef 8b 3e ed 53 98 be
       0.11868675 0.055750754 0.27331105 -0.2975153
000380 0b cf 3b 3d 12 1d cb 3b 6b ac 89 be 8e 36 54 3e
       0.04585175 0.006198534 -0.26889357 0.20723936
000390 24 12 b4 be 3d 84 c0 3e 50 40 a6 bd aa 78 3c be
       -0.3517009 0.3760089 -0.081177354 -0.18405405
0003a0 9e f3 c3 3e 21 8c 5d be ce 55 c8 3e e7 c6 bb bd
       0.38271803 -0.21635486 0.39127964 -0.09168797
0003b0 36 44 47 be 11 5e aa bc e2 9f cf bd 48 d7 57 be
       -0.19459614 -0.020796807 -0.10137917 -0.21078217
0003c0 76 b4 02 3e c2 cc 37 3e f0 32 8e 3e 18 85 56 3e
       0.12764153 0.17949203 0.27773237 0.20949209
0003d0 40 3e 9c 3e dc 4e ba bd 83 c5 e6 3d d6 f3 d0 bc
       0.30516243 -0.090970725 0.11268141 -0.025506895
0003e0 db d1 c9 3d 09 27 6c bc 26 47 40 3e 1d a6 6f be
       0.0985448 -0.014413604 0.18777141 -0.23403211
0003f0 36 97 67 bd d4 80 3d bd 25 d6 89 be ed ef 01 3d
       -0.05654069 -0.04626544 -0.26921192 0.03172295

tfl.pseudo_qconst i1 [32, 64]
000000 c2 54 18 a2 b9 f9 d9 aa f9 51 b6 0b 60 0c 01 1b
       -62 84 24 -94 -71 -7 -39 -86 -7 81 -74 11 96 12 1 27
000010 46 46 94 0e dd be f9 a8 87 06 32 f6 26 2b a1 3a
       70 70 -108 14 -35 -66 -7 -88 -121 6 50 -10 38 43 -95 58
000020 a0 fe 02 e8 25 86 bb 2b 14 95 46 3b a8 cc 0d 30
       -96 -2 2 -24 37 -122 -69 43 20 -107 70 59 -88 -52 13 48
000030 bc b2 f7 56 88 48 25 1c 55 30 57 ca 81 2c 47 32
       -68 -78 -9 86 -120 72 37 28 85 48 87 -54 -127 44 71 50
000040 7f 32 34 27 1a c2 e1 ba 1f 45 28 4e 48 55 cf 03
       127 50 52 39 26 -62 -31 -70 31 69 40 78 72 85 -49 3
000050 38 48 f7 e1 41 2e 24 dc 2d 24 fd a7 61 35 49 4a
       56 72 -9 -31 65 46 36 -36 45 36 -3 -89 97 53 73 74
000060 21 89 b9 c7 ad 7d 52 b8 65 a0 e6 1c 3f 3c 50 27
       33 -119 -71 -57 -83 125 82 -72 101 -96 -26 28 63 60 80 39
000070 b9 55 ad 0c c5 0f 61 c3 cf 11 bd f1 5e 75 c2 0a
       -71 85 -83 12 -59 15 97 -61 -49 17 -67 -15 94 117 -62 10
000080 b3 40 54 96 9d d9 e2 34 05 01 fc c1 11 36 52 ab
       -77 64 84 -106 -99 -39 -30 52 5 1 -4 -63 17 54 82 -85
000090 9a 26 c7 d5 0a fc 06 4c 5f 89 bd 4e cb 03 cd b9
       -102 38 -57 -43 10 -4 6 76 95 -119 -67 78 -53 3 -51 -71
0000a0 02 b9 c3 e0 2c 50 d9 17 48 30 03 13 b5 ee 2b 50
       2 -71 -61 -32 44 80 -39 23 72 48 3 19 -75 -18 43 80
0000b0 ba 3f bd ea c2 25 1c f8 07 08 e5 c8 7f 4c ef b7
       -70 63 -67 -22 -62 37 28 -8 7 8 -27 -56 127 76 -17 -73
0000c0 e9 ac 61 d0 b3 34 b3 e8 54 0e d1 50 14 52 31 4e
       -23 -84 97 -48 -77 52 -77 -24 84 14 -47 80 20 82 49 78
0000d0 cc c5 ea df bb ce f3 fd 0c 54 e2 d7 7f 12 c9 db
       -52 -59 -22 -33 -69 -50 -13 -3 12 84 -30 -41 127 18 -55 -37
0000e0 97 ee 48 0e a3 0f d9 dc 5e af 73 e0 98 68 1c 55
       -105 -18 72 14 -93 15 -39 -36 94 -81 115 -32 -104 104 28 85
0000f0 bc ec dd 0e c9 d5 88 1f 55 ec cf d4 6f c8 24 59
       -68 -20 -35 14 -55 -43 -120 31 85 -20 -49 -44 111 -56 36 89

sequential_1/batch_normalization_1/batchnorm/mul_1;sequential_1/batch_normalization_1/batchnorm/add_1;sequential_1/dense_1/MatMul;sequential_1/dense_1/Relu;sequential_1/dense_1/BiasAdd i1 [64, 42]
000000 81 33 b2 2a 2f d1 f3 34 1a f9 de 15 06 df 08 fb
       -127 51 -78 42 47 -47 -13 52 26 -7 -34 21 6 -33 8 -5
000010 0d d9 fd 02 23 0b 25 e0 e0 e2 fe e4 e5 dc fd f7
       13 -39 -3 2 35 11 37 -32 -32 -30 -2 -28 -27 -36 -3 -9
000020 08 12 f6 f2 fd ed 12 1d 32 17 96 7f d8 b5 18 e3
       8 18 -10 -14 -3 -19 18 29 50 23 -106 127 -40 -75 24 -29
000030 1c e8 ea f7 02 f5 1c df 14 0d 16 04 fd 2b da fd
       28 -24 -22 -9 2 -11 28 -33 20 13 22 4 -3 43 -38 -3
000040 f0 22 df e3 2b 24 1b 14 10 f8 fd de ff fc 23 f6
       -16 34 -33 -29 43 36 27 20 16 -8 -3 -34 -1 -4 35 -10
000050 2a f6 21 db 35 7f e9 d3 53 19 29 3a 01 21 25 05
       42 -10 33 -37 53 127 -23 -45 83 25 41 58 1 33 37 5
000060 10 20 ec f1 29 0c e9 35 d8 02 0d ef 1a e2 21 0d
       16 32 -20 -15 41 12 -23 53 -40 2 13 -17 26 -30 33 13
000070 da 08 35 28 42 30 0f ec da 18 e0 30 53 40 7f 39
       -38 8 53 40 66 48 15 -20 -38 24 -32 48 83 64 127 57
000080 5f ba 28 70 e5 1a f8 5d 12 dc 04 21 d6 00 35 db
       95 -70 40 112 -27 26 -8 93 18 -36 4 33 -42 0 53 -37
000090 9e ce fe d8 2d d5 38 df c7 28 1d f5 3e 40 23 e7
       -98 -50 -2 -40 45 -43 56 -33 -57 40 29 -11 62 64 35 -25
0000a0 26 4a e6 08 f4 ca 13 f0 fe 19 81 12 cc 1e e3 1c
       38 74 -26 8 -12 -54 19 -16 -2 25 -127 18 -52 30 -29 28
0000b0 e9 4e f1 f0 15 34 0a de fe e1 42 f8 00 0f e8 29
       -23 78 -15 -16 21 52 10 -34 -2 -31 66 -8 0 15 -24 41
0000c0 ec 25 09 ed e6 fb d7 2d e2 f7 68 14 ec fc ee f1
       -20 37 9 -19 -26 -5 -41 45 -30 -9 104 20 -20 -4 -18 -15
0000d0 f9 de 81 2f ee 01 03 27 fe f9 e4 ba 14 12 ff f7
       -7 -34 -127 47 -18 1 3 39 -2 -7 -28 -70 20 18 -1 -9
0000e0 f1 c1 e2 df d6 11 e4 03 10 cc ce 0a 17 12 f8 0a
       -15 -63 -30 -33 -42 17 -28 3 16 -52 -50 10 23 18 -8 10
0000f0 0a 0c 1e 18 ec 03 08 12 12 07 d9 cc 1d 81 0f 93
       10 12 30 24 -20 3 8 18 18 7 -39 -52 29 -127 15 -109
